{"format": "layers-model", "generatedBy": "keras v2.15.0", "convertedBy": "TensorFlow.js Converter v4.14.0", "modelTopology": {"keras_version": "2.15.0", "backend": "tensorflow", "model_config": {"class_name": "Sequential", "config": {"name": "sequential_2", "layers": [{"class_name": "InputLayer", "config": {"batch_input_shape": [null, 224, 224, 3], "dtype": "float32", "sparse": false, "ragged": false, "name": "inception_v3_input"}}, {"class_name": "Functional", "config": {"name": "inception_v3", "trainable": true, "layers": [{"module": "keras.layers", "class_name": "InputLayer", "config": {"batch_input_shape": [null, 224, 224, 3], "dtype": "float32", "sparse": false, "ragged": false, "name": "input_3"}, "registered_name": null, "name": "input_3", "inbound_nodes": []}, {"module": "keras.layers", "class_name": "Conv2D", "config": {"name": "conv2d_188", "trainable": false, "dtype": "float32", "filters": 32, "kernel_size": [3, 3], "strides": [2, 2], "padding": "valid", "data_format": "channels_last", "dilation_rate": [1, 1], "groups": 1, "activation": "linear", "use_bias": false, "kernel_initializer": {"module": "keras.initializers", "class_name": "GlorotUniform", "config": {"seed": null}, "registered_name": null}, "bias_initializer": {"module": "keras.initializers", "class_name": "Zeros", "config": {}, "registered_name": null}, "kernel_regularizer": null, "bias_regularizer": null, "activity_regularizer": null, "kernel_constraint": null, "bias_constraint": null}, "registered_name": null, "build_config": {"input_shape": [null, 224, 224, 3]}, "name": "conv2d_188", "inbound_nodes": [[["input_3", 0, 0, {}]]]}, {"module": "keras.layers", "class_name": "BatchNormalization", "config": {"name": "batch_normalization_188", "trainable": false, "dtype": "float32", "axis": [3], "momentum": 0.99, "epsilon": 0.001, "center": true, "scale": false, "beta_initializer": {"module": "keras.initializers", "class_name": "Zeros", "config": {}, "registered_name": null}, "gamma_initializer": {"module": "keras.initializers", "class_name": "Ones", "config": {}, "registered_name": null}, "moving_mean_initializer": {"module": "keras.initializers", "class_name": "Zeros", "config": {}, "registered_name": null}, "moving_variance_initializer": {"module": "keras.initializers", "class_name": "Ones", "config": {}, "registered_name": null}, "beta_regularizer": null, "gamma_regularizer": null, "beta_constraint": null, "gamma_constraint": null}, "registered_name": null, "build_config": {"input_shape": [null, 111, 111, 32]}, "name": "batch_normalization_188", "inbound_nodes": [[["conv2d_188", 0, 0, {}]]]}, {"module": "keras.layers", "class_name": "Activation", "config": {"name": "activation_188", "trainable": false, "dtype": "float32", "activation": "relu"}, "registered_name": null, "build_config": {"input_shape": [null, 111, 111, 32]}, "name": "activation_188", "inbound_nodes": [[["batch_normalization_188", 0, 0, {}]]]}, {"module": "keras.layers", "class_name": "Conv2D", "config": {"name": "conv2d_189", "trainable": false, "dtype": "float32", "filters": 32, "kernel_size": [3, 3], "strides": [1, 1], "padding": "valid", "data_format": "channels_last", "dilation_rate": [1, 1], "groups": 1, "activation": "linear", "use_bias": false, "kernel_initializer": {"module": "keras.initializers", "class_name": "GlorotUniform", "config": {"seed": null}, "registered_name": null}, "bias_initializer": {"module": "keras.initializers", "class_name": "Zeros", "config": {}, "registered_name": null}, "kernel_regularizer": null, "bias_regularizer": null, "activity_regularizer": null, "kernel_constraint": null, "bias_constraint": null}, "registered_name": null, "build_config": {"input_shape": [null, 111, 111, 32]}, "name": "conv2d_189", "inbound_nodes": [[["activation_188", 0, 0, {}]]]}, {"module": "keras.layers", "class_name": "BatchNormalization", "config": {"name": "batch_normalization_189", "trainable": false, "dtype": "float32", "axis": [3], "momentum": 0.99, "epsilon": 0.001, "center": true, "scale": false, "beta_initializer": {"module": "keras.initializers", "class_name": "Zeros", "config": {}, "registered_name": null}, "gamma_initializer": {"module": "keras.initializers", "class_name": "Ones", "config": {}, "registered_name": null}, "moving_mean_initializer": {"module": "keras.initializers", "class_name": "Zeros", "config": {}, "registered_name": null}, "moving_variance_initializer": {"module": "keras.initializers", "class_name": "Ones", "config": {}, "registered_name": null}, "beta_regularizer": null, "gamma_regularizer": null, "beta_constraint": null, "gamma_constraint": null}, "registered_name": null, "build_config": {"input_shape": [null, 109, 109, 32]}, "name": "batch_normalization_189", "inbound_nodes": [[["conv2d_189", 0, 0, {}]]]}, {"module": "keras.layers", "class_name": "Activation", "config": {"name": "activation_189", "trainable": false, "dtype": "float32", "activation": "relu"}, "registered_name": null, "build_config": {"input_shape": [null, 109, 109, 32]}, "name": "activation_189", "inbound_nodes": [[["batch_normalization_189", 0, 0, {}]]]}, {"module": "keras.layers", "class_name": "Conv2D", "config": {"name": "conv2d_190", "trainable": false, "dtype": "float32", "filters": 64, "kernel_size": [3, 3], "strides": [1, 1], "padding": "same", "data_format": "channels_last", "dilation_rate": [1, 1], "groups": 1, "activation": "linear", "use_bias": false, "kernel_initializer": {"module": "keras.initializers", "class_name": "GlorotUniform", "config": {"seed": null}, "registered_name": null}, "bias_initializer": {"module": "keras.initializers", "class_name": "Zeros", "config": {}, "registered_name": null}, "kernel_regularizer": null, "bias_regularizer": null, "activity_regularizer": null, "kernel_constraint": null, "bias_constraint": null}, "registered_name": null, "build_config": {"input_shape": [null, 109, 109, 32]}, "name": "conv2d_190", "inbound_nodes": [[["activation_189", 0, 0, {}]]]}, {"module": "keras.layers", "class_name": "BatchNormalization", "config": {"name": "batch_normalization_190", "trainable": false, "dtype": "float32", "axis": [3], "momentum": 0.99, "epsilon": 0.001, "center": true, "scale": false, "beta_initializer": {"module": "keras.initializers", "class_name": "Zeros", "config": {}, "registered_name": null}, "gamma_initializer": {"module": "keras.initializers", "class_name": "Ones", "config": {}, "registered_name": null}, "moving_mean_initializer": {"module": "keras.initializers", "class_name": "Zeros", "config": {}, "registered_name": null}, "moving_variance_initializer": {"module": "keras.initializers", "class_name": "Ones", "config": {}, "registered_name": null}, "beta_regularizer": null, "gamma_regularizer": null, "beta_constraint": null, "gamma_constraint": null}, "registered_name": null, "build_config": {"input_shape": [null, 109, 109, 64]}, "name": "batch_normalization_190", "inbound_nodes": [[["conv2d_190", 0, 0, {}]]]}, {"module": "keras.layers", "class_name": "Activation", "config": {"name": "activation_190", "trainable": false, "dtype": "float32", "activation": "relu"}, "registered_name": null, "build_config": {"input_shape": [null, 109, 109, 64]}, "name": "activation_190", "inbound_nodes": [[["batch_normalization_190", 0, 0, {}]]]}, {"module": "keras.layers", "class_name": "MaxPooling2D", "config": {"name": "max_pooling2d_8", "trainable": false, "dtype": "float32", "pool_size": [3, 3], "padding": "valid", "strides": [2, 2], "data_format": "channels_last"}, "registered_name": null, "build_config": {"input_shape": [null, 109, 109, 64]}, "name": "max_pooling2d_8", "inbound_nodes": [[["activation_190", 0, 0, {}]]]}, {"module": "keras.layers", "class_name": "Conv2D", "config": {"name": "conv2d_191", "trainable": false, "dtype": "float32", "filters": 80, "kernel_size": [1, 1], "strides": [1, 1], "padding": "valid", "data_format": "channels_last", "dilation_rate": [1, 1], "groups": 1, "activation": "linear", "use_bias": false, "kernel_initializer": {"module": "keras.initializers", "class_name": "GlorotUniform", "config": {"seed": null}, "registered_name": null}, "bias_initializer": {"module": "keras.initializers", "class_name": "Zeros", "config": {}, "registered_name": null}, "kernel_regularizer": null, "bias_regularizer": null, "activity_regularizer": null, "kernel_constraint": null, "bias_constraint": null}, "registered_name": null, "build_config": {"input_shape": [null, 54, 54, 64]}, "name": "conv2d_191", "inbound_nodes": [[["max_pooling2d_8", 0, 0, {}]]]}, {"module": "keras.layers", "class_name": "BatchNormalization", "config": {"name": "batch_normalization_191", "trainable": false, "dtype": "float32", "axis": [3], "momentum": 0.99, "epsilon": 0.001, "center": true, "scale": false, "beta_initializer": {"module": "keras.initializers", "class_name": "Zeros", "config": {}, "registered_name": null}, "gamma_initializer": {"module": "keras.initializers", "class_name": "Ones", "config": {}, "registered_name": null}, "moving_mean_initializer": {"module": "keras.initializers", "class_name": "Zeros", "config": {}, "registered_name": null}, "moving_variance_initializer": {"module": "keras.initializers", "class_name": "Ones", "config": {}, "registered_name": null}, "beta_regularizer": null, "gamma_regularizer": null, "beta_constraint": null, "gamma_constraint": null}, "registered_name": null, "build_config": {"input_shape": [null, 54, 54, 80]}, "name": "batch_normalization_191", "inbound_nodes": [[["conv2d_191", 0, 0, {}]]]}, {"module": "keras.layers", "class_name": "Activation", "config": {"name": "activation_191", "trainable": false, "dtype": "float32", "activation": "relu"}, "registered_name": null, "build_config": {"input_shape": [null, 54, 54, 80]}, "name": "activation_191", "inbound_nodes": [[["batch_normalization_191", 0, 0, {}]]]}, {"module": "keras.layers", "class_name": "Conv2D", "config": {"name": "conv2d_192", "trainable": false, "dtype": "float32", "filters": 192, "kernel_size": [3, 3], "strides": [1, 1], "padding": "valid", "data_format": "channels_last", "dilation_rate": [1, 1], "groups": 1, "activation": "linear", "use_bias": false, "kernel_initializer": {"module": "keras.initializers", "class_name": "GlorotUniform", "config": {"seed": null}, "registered_name": null}, "bias_initializer": {"module": "keras.initializers", "class_name": "Zeros", "config": {}, "registered_name": null}, "kernel_regularizer": null, "bias_regularizer": null, "activity_regularizer": null, "kernel_constraint": null, "bias_constraint": null}, "registered_name": null, "build_config": {"input_shape": [null, 54, 54, 80]}, "name": "conv2d_192", "inbound_nodes": [[["activation_191", 0, 0, {}]]]}, {"module": "keras.layers", "class_name": "BatchNormalization", "config": {"name": "batch_normalization_192", "trainable": false, "dtype": "float32", "axis": [3], "momentum": 0.99, "epsilon": 0.001, "center": true, "scale": false, "beta_initializer": {"module": "keras.initializers", "class_name": "Zeros", "config": {}, "registered_name": null}, "gamma_initializer": {"module": "keras.initializers", "class_name": "Ones", "config": {}, "registered_name": null}, "moving_mean_initializer": {"module": "keras.initializers", "class_name": "Zeros", "config": {}, "registered_name": null}, "moving_variance_initializer": {"module": "keras.initializers", "class_name": "Ones", "config": {}, "registered_name": null}, "beta_regularizer": null, "gamma_regularizer": null, "beta_constraint": null, "gamma_constraint": null}, "registered_name": null, "build_config": {"input_shape": [null, 52, 52, 192]}, "name": "batch_normalization_192", "inbound_nodes": [[["conv2d_192", 0, 0, {}]]]}, {"module": "keras.layers", "class_name": "Activation", "config": {"name": "activation_192", "trainable": false, "dtype": "float32", "activation": "relu"}, "registered_name": null, "build_config": {"input_shape": [null, 52, 52, 192]}, "name": "activation_192", "inbound_nodes": [[["batch_normalization_192", 0, 0, {}]]]}, {"module": "keras.layers", "class_name": "MaxPooling2D", "config": {"name": "max_pooling2d_9", "trainable": false, "dtype": "float32", "pool_size": [3, 3], "padding": "valid", "strides": [2, 2], "data_format": "channels_last"}, "registered_name": null, "build_config": {"input_shape": [null, 52, 52, 192]}, "name": "max_pooling2d_9", "inbound_nodes": [[["activation_192", 0, 0, {}]]]}, {"module": "keras.layers", "class_name": "Conv2D", "config": {"name": "conv2d_196", "trainable": false, "dtype": "float32", "filters": 64, "kernel_size": [1, 1], "strides": [1, 1], "padding": "same", "data_format": "channels_last", "dilation_rate": [1, 1], "groups": 1, "activation": "linear", "use_bias": false, "kernel_initializer": {"module": "keras.initializers", "class_name": "GlorotUniform", "config": {"seed": null}, "registered_name": null}, "bias_initializer": {"module": "keras.initializers", "class_name": "Zeros", "config": {}, "registered_name": null}, "kernel_regularizer": null, "bias_regularizer": null, "activity_regularizer": null, "kernel_constraint": null, "bias_constraint": null}, "registered_name": null, "build_config": {"input_shape": [null, 25, 25, 192]}, "name": "conv2d_196", "inbound_nodes": [[["max_pooling2d_9", 0, 0, {}]]]}, {"module": "keras.layers", "class_name": "BatchNormalization", "config": {"name": "batch_normalization_196", "trainable": false, "dtype": "float32", "axis": [3], "momentum": 0.99, "epsilon": 0.001, "center": true, "scale": false, "beta_initializer": {"module": "keras.initializers", "class_name": "Zeros", "config": {}, "registered_name": null}, "gamma_initializer": {"module": "keras.initializers", "class_name": "Ones", "config": {}, "registered_name": null}, "moving_mean_initializer": {"module": "keras.initializers", "class_name": "Zeros", "config": {}, "registered_name": null}, "moving_variance_initializer": {"module": "keras.initializers", "class_name": "Ones", "config": {}, "registered_name": null}, "beta_regularizer": null, "gamma_regularizer": null, "beta_constraint": null, "gamma_constraint": null}, "registered_name": null, "build_config": {"input_shape": [null, 25, 25, 64]}, "name": "batch_normalization_196", "inbound_nodes": [[["conv2d_196", 0, 0, {}]]]}, {"module": "keras.layers", "class_name": "Activation", "config": {"name": "activation_196", "trainable": false, "dtype": "float32", "activation": "relu"}, "registered_name": null, "build_config": {"input_shape": [null, 25, 25, 64]}, "name": "activation_196", "inbound_nodes": [[["batch_normalization_196", 0, 0, {}]]]}, {"module": "keras.layers", "class_name": "Conv2D", "config": {"name": "conv2d_194", "trainable": false, "dtype": "float32", "filters": 48, "kernel_size": [1, 1], "strides": [1, 1], "padding": "same", "data_format": "channels_last", "dilation_rate": [1, 1], "groups": 1, "activation": "linear", "use_bias": false, "kernel_initializer": {"module": "keras.initializers", "class_name": "GlorotUniform", "config": {"seed": null}, "registered_name": null}, "bias_initializer": {"module": "keras.initializers", "class_name": "Zeros", "config": {}, "registered_name": null}, "kernel_regularizer": null, "bias_regularizer": null, "activity_regularizer": null, "kernel_constraint": null, "bias_constraint": null}, "registered_name": null, "build_config": {"input_shape": [null, 25, 25, 192]}, "name": "conv2d_194", "inbound_nodes": [[["max_pooling2d_9", 0, 0, {}]]]}, {"module": "keras.layers", "class_name": "Conv2D", "config": {"name": "conv2d_197", "trainable": false, "dtype": "float32", "filters": 96, "kernel_size": [3, 3], "strides": [1, 1], "padding": "same", "data_format": "channels_last", "dilation_rate": [1, 1], "groups": 1, "activation": "linear", "use_bias": false, "kernel_initializer": {"module": "keras.initializers", "class_name": "GlorotUniform", "config": {"seed": null}, "registered_name": null}, "bias_initializer": {"module": "keras.initializers", "class_name": "Zeros", "config": {}, "registered_name": null}, "kernel_regularizer": null, "bias_regularizer": null, "activity_regularizer": null, "kernel_constraint": null, "bias_constraint": null}, "registered_name": null, "build_config": {"input_shape": [null, 25, 25, 64]}, "name": "conv2d_197", "inbound_nodes": [[["activation_196", 0, 0, {}]]]}, {"module": "keras.layers", "class_name": "BatchNormalization", "config": {"name": "batch_normalization_194", "trainable": false, "dtype": "float32", "axis": [3], "momentum": 0.99, "epsilon": 0.001, "center": true, "scale": false, "beta_initializer": {"module": "keras.initializers", "class_name": "Zeros", "config": {}, "registered_name": null}, "gamma_initializer": {"module": "keras.initializers", "class_name": "Ones", "config": {}, "registered_name": null}, "moving_mean_initializer": {"module": "keras.initializers", "class_name": "Zeros", "config": {}, "registered_name": null}, "moving_variance_initializer": {"module": "keras.initializers", "class_name": "Ones", "config": {}, "registered_name": null}, "beta_regularizer": null, "gamma_regularizer": null, "beta_constraint": null, "gamma_constraint": null}, "registered_name": null, "build_config": {"input_shape": [null, 25, 25, 48]}, "name": "batch_normalization_194", "inbound_nodes": [[["conv2d_194", 0, 0, {}]]]}, {"module": "keras.layers", "class_name": "BatchNormalization", "config": {"name": "batch_normalization_197", "trainable": false, "dtype": "float32", "axis": [3], "momentum": 0.99, "epsilon": 0.001, "center": true, "scale": false, "beta_initializer": {"module": "keras.initializers", "class_name": "Zeros", "config": {}, "registered_name": null}, "gamma_initializer": {"module": "keras.initializers", "class_name": "Ones", "config": {}, "registered_name": null}, "moving_mean_initializer": {"module": "keras.initializers", "class_name": "Zeros", "config": {}, "registered_name": null}, "moving_variance_initializer": {"module": "keras.initializers", "class_name": "Ones", "config": {}, "registered_name": null}, "beta_regularizer": null, "gamma_regularizer": null, "beta_constraint": null, "gamma_constraint": null}, "registered_name": null, "build_config": {"input_shape": [null, 25, 25, 96]}, "name": "batch_normalization_197", "inbound_nodes": [[["conv2d_197", 0, 0, {}]]]}, {"module": "keras.layers", "class_name": "Activation", "config": {"name": "activation_194", "trainable": false, "dtype": "float32", "activation": "relu"}, "registered_name": null, "build_config": {"input_shape": [null, 25, 25, 48]}, "name": "activation_194", "inbound_nodes": [[["batch_normalization_194", 0, 0, {}]]]}, {"module": "keras.layers", "class_name": "Activation", "config": {"name": "activation_197", "trainable": false, "dtype": "float32", "activation": "relu"}, "registered_name": null, "build_config": {"input_shape": [null, 25, 25, 96]}, "name": "activation_197", "inbound_nodes": [[["batch_normalization_197", 0, 0, {}]]]}, {"module": "keras.layers", "class_name": "AveragePooling2D", "config": {"name": "average_pooling2d_18", "trainable": false, "dtype": "float32", "pool_size": [3, 3], "padding": "same", "strides": [1, 1], "data_format": "channels_last"}, "registered_name": null, "build_config": {"input_shape": [null, 25, 25, 192]}, "name": "average_pooling2d_18", "inbound_nodes": [[["max_pooling2d_9", 0, 0, {}]]]}, {"module": "keras.layers", "class_name": "Conv2D", "config": {"name": "conv2d_193", "trainable": false, "dtype": "float32", "filters": 64, "kernel_size": [1, 1], "strides": [1, 1], "padding": "same", "data_format": "channels_last", "dilation_rate": [1, 1], "groups": 1, "activation": "linear", "use_bias": false, "kernel_initializer": {"module": "keras.initializers", "class_name": "GlorotUniform", "config": {"seed": null}, "registered_name": null}, "bias_initializer": {"module": "keras.initializers", "class_name": "Zeros", "config": {}, "registered_name": null}, "kernel_regularizer": null, "bias_regularizer": null, "activity_regularizer": null, "kernel_constraint": null, "bias_constraint": null}, "registered_name": null, "build_config": {"input_shape": [null, 25, 25, 192]}, "name": "conv2d_193", "inbound_nodes": [[["max_pooling2d_9", 0, 0, {}]]]}, {"module": "keras.layers", "class_name": "Conv2D", "config": {"name": "conv2d_195", "trainable": false, "dtype": "float32", "filters": 64, "kernel_size": [5, 5], "strides": [1, 1], "padding": "same", "data_format": "channels_last", "dilation_rate": [1, 1], "groups": 1, "activation": "linear", "use_bias": false, "kernel_initializer": {"module": "keras.initializers", "class_name": "GlorotUniform", "config": {"seed": null}, "registered_name": null}, "bias_initializer": {"module": "keras.initializers", "class_name": "Zeros", "config": {}, "registered_name": null}, "kernel_regularizer": null, "bias_regularizer": null, "activity_regularizer": null, "kernel_constraint": null, "bias_constraint": null}, "registered_name": null, "build_config": {"input_shape": [null, 25, 25, 48]}, "name": "conv2d_195", "inbound_nodes": [[["activation_194", 0, 0, {}]]]}, {"module": "keras.layers", "class_name": "Conv2D", "config": {"name": "conv2d_198", "trainable": false, "dtype": "float32", "filters": 96, "kernel_size": [3, 3], "strides": [1, 1], "padding": "same", "data_format": "channels_last", "dilation_rate": [1, 1], "groups": 1, "activation": "linear", "use_bias": false, "kernel_initializer": {"module": "keras.initializers", "class_name": "GlorotUniform", "config": {"seed": null}, "registered_name": null}, "bias_initializer": {"module": "keras.initializers", "class_name": "Zeros", "config": {}, "registered_name": null}, "kernel_regularizer": null, "bias_regularizer": null, "activity_regularizer": null, "kernel_constraint": null, "bias_constraint": null}, "registered_name": null, "build_config": {"input_shape": [null, 25, 25, 96]}, "name": "conv2d_198", "inbound_nodes": [[["activation_197", 0, 0, {}]]]}, {"module": "keras.layers", "class_name": "Conv2D", "config": {"name": "conv2d_199", "trainable": false, "dtype": "float32", "filters": 32, "kernel_size": [1, 1], "strides": [1, 1], "padding": "same", "data_format": "channels_last", "dilation_rate": [1, 1], "groups": 1, "activation": "linear", "use_bias": false, "kernel_initializer": {"module": "keras.initializers", "class_name": "GlorotUniform", "config": {"seed": null}, "registered_name": null}, "bias_initializer": {"module": "keras.initializers", "class_name": "Zeros", "config": {}, "registered_name": null}, "kernel_regularizer": null, "bias_regularizer": null, "activity_regularizer": null, "kernel_constraint": null, "bias_constraint": null}, "registered_name": null, "build_config": {"input_shape": [null, 25, 25, 192]}, "name": "conv2d_199", "inbound_nodes": [[["average_pooling2d_18", 0, 0, {}]]]}, {"module": "keras.layers", "class_name": "BatchNormalization", "config": {"name": "batch_normalization_193", "trainable": false, "dtype": "float32", "axis": [3], "momentum": 0.99, "epsilon": 0.001, "center": true, "scale": false, "beta_initializer": {"module": "keras.initializers", "class_name": "Zeros", "config": {}, "registered_name": null}, "gamma_initializer": {"module": "keras.initializers", "class_name": "Ones", "config": {}, "registered_name": null}, "moving_mean_initializer": {"module": "keras.initializers", "class_name": "Zeros", "config": {}, "registered_name": null}, "moving_variance_initializer": {"module": "keras.initializers", "class_name": "Ones", "config": {}, "registered_name": null}, "beta_regularizer": null, "gamma_regularizer": null, "beta_constraint": null, "gamma_constraint": null}, "registered_name": null, "build_config": {"input_shape": [null, 25, 25, 64]}, "name": "batch_normalization_193", "inbound_nodes": [[["conv2d_193", 0, 0, {}]]]}, {"module": "keras.layers", "class_name": "BatchNormalization", "config": {"name": "batch_normalization_195", "trainable": false, "dtype": "float32", "axis": [3], "momentum": 0.99, "epsilon": 0.001, "center": true, "scale": false, "beta_initializer": {"module": "keras.initializers", "class_name": "Zeros", "config": {}, "registered_name": null}, "gamma_initializer": {"module": "keras.initializers", "class_name": "Ones", "config": {}, "registered_name": null}, "moving_mean_initializer": {"module": "keras.initializers", "class_name": "Zeros", "config": {}, "registered_name": null}, "moving_variance_initializer": {"module": "keras.initializers", "class_name": "Ones", "config": {}, "registered_name": null}, "beta_regularizer": null, "gamma_regularizer": null, "beta_constraint": null, "gamma_constraint": null}, "registered_name": null, "build_config": {"input_shape": [null, 25, 25, 64]}, "name": "batch_normalization_195", "inbound_nodes": [[["conv2d_195", 0, 0, {}]]]}, {"module": "keras.layers", "class_name": "BatchNormalization", "config": {"name": "batch_normalization_198", "trainable": false, "dtype": "float32", "axis": [3], "momentum": 0.99, "epsilon": 0.001, "center": true, "scale": false, "beta_initializer": {"module": "keras.initializers", "class_name": "Zeros", "config": {}, "registered_name": null}, "gamma_initializer": {"module": "keras.initializers", "class_name": "Ones", "config": {}, "registered_name": null}, "moving_mean_initializer": {"module": "keras.initializers", "class_name": "Zeros", "config": {}, "registered_name": null}, "moving_variance_initializer": {"module": "keras.initializers", "class_name": "Ones", "config": {}, "registered_name": null}, "beta_regularizer": null, "gamma_regularizer": null, "beta_constraint": null, "gamma_constraint": null}, "registered_name": null, "build_config": {"input_shape": [null, 25, 25, 96]}, "name": "batch_normalization_198", "inbound_nodes": [[["conv2d_198", 0, 0, {}]]]}, {"module": "keras.layers", "class_name": "BatchNormalization", "config": {"name": "batch_normalization_199", "trainable": false, "dtype": "float32", "axis": [3], "momentum": 0.99, "epsilon": 0.001, "center": true, "scale": false, "beta_initializer": {"module": "keras.initializers", "class_name": "Zeros", "config": {}, "registered_name": null}, "gamma_initializer": {"module": "keras.initializers", "class_name": "Ones", "config": {}, "registered_name": null}, "moving_mean_initializer": {"module": "keras.initializers", "class_name": "Zeros", "config": {}, "registered_name": null}, "moving_variance_initializer": {"module": "keras.initializers", "class_name": "Ones", "config": {}, "registered_name": null}, "beta_regularizer": null, "gamma_regularizer": null, "beta_constraint": null, "gamma_constraint": null}, "registered_name": null, "build_config": {"input_shape": [null, 25, 25, 32]}, "name": "batch_normalization_199", "inbound_nodes": [[["conv2d_199", 0, 0, {}]]]}, {"module": "keras.layers", "class_name": "Activation", "config": {"name": "activation_193", "trainable": false, "dtype": "float32", "activation": "relu"}, "registered_name": null, "build_config": {"input_shape": [null, 25, 25, 64]}, "name": "activation_193", "inbound_nodes": [[["batch_normalization_193", 0, 0, {}]]]}, {"module": "keras.layers", "class_name": "Activation", "config": {"name": "activation_195", "trainable": false, "dtype": "float32", "activation": "relu"}, "registered_name": null, "build_config": {"input_shape": [null, 25, 25, 64]}, "name": "activation_195", "inbound_nodes": [[["batch_normalization_195", 0, 0, {}]]]}, {"module": "keras.layers", "class_name": "Activation", "config": {"name": "activation_198", "trainable": false, "dtype": "float32", "activation": "relu"}, "registered_name": null, "build_config": {"input_shape": [null, 25, 25, 96]}, "name": "activation_198", "inbound_nodes": [[["batch_normalization_198", 0, 0, {}]]]}, {"module": "keras.layers", "class_name": "Activation", "config": {"name": "activation_199", "trainable": false, "dtype": "float32", "activation": "relu"}, "registered_name": null, "build_config": {"input_shape": [null, 25, 25, 32]}, "name": "activation_199", "inbound_nodes": [[["batch_normalization_199", 0, 0, {}]]]}, {"module": "keras.layers", "class_name": "Concatenate", "config": {"name": "mixed0", "trainable": false, "dtype": "float32", "axis": 3}, "registered_name": null, "build_config": {"input_shape": [[null, 25, 25, 64], [null, 25, 25, 64], [null, 25, 25, 96], [null, 25, 25, 32]]}, "name": "mixed0", "inbound_nodes": [[["activation_193", 0, 0, {}], ["activation_195", 0, 0, {}], ["activation_198", 0, 0, {}], ["activation_199", 0, 0, {}]]]}, {"module": "keras.layers", "class_name": "Conv2D", "config": {"name": "conv2d_203", "trainable": false, "dtype": "float32", "filters": 64, "kernel_size": [1, 1], "strides": [1, 1], "padding": "same", "data_format": "channels_last", "dilation_rate": [1, 1], "groups": 1, "activation": "linear", "use_bias": false, "kernel_initializer": {"module": "keras.initializers", "class_name": "GlorotUniform", "config": {"seed": null}, "registered_name": null}, "bias_initializer": {"module": "keras.initializers", "class_name": "Zeros", "config": {}, "registered_name": null}, "kernel_regularizer": null, "bias_regularizer": null, "activity_regularizer": null, "kernel_constraint": null, "bias_constraint": null}, "registered_name": null, "build_config": {"input_shape": [null, 25, 25, 256]}, "name": "conv2d_203", "inbound_nodes": [[["mixed0", 0, 0, {}]]]}, {"module": "keras.layers", "class_name": "BatchNormalization", "config": {"name": "batch_normalization_203", "trainable": false, "dtype": "float32", "axis": [3], "momentum": 0.99, "epsilon": 0.001, "center": true, "scale": false, "beta_initializer": {"module": "keras.initializers", "class_name": "Zeros", "config": {}, "registered_name": null}, "gamma_initializer": {"module": "keras.initializers", "class_name": "Ones", "config": {}, "registered_name": null}, "moving_mean_initializer": {"module": "keras.initializers", "class_name": "Zeros", "config": {}, "registered_name": null}, "moving_variance_initializer": {"module": "keras.initializers", "class_name": "Ones", "config": {}, "registered_name": null}, "beta_regularizer": null, "gamma_regularizer": null, "beta_constraint": null, "gamma_constraint": null}, "registered_name": null, "build_config": {"input_shape": [null, 25, 25, 64]}, "name": "batch_normalization_203", "inbound_nodes": [[["conv2d_203", 0, 0, {}]]]}, {"module": "keras.layers", "class_name": "Activation", "config": {"name": "activation_203", "trainable": false, "dtype": "float32", "activation": "relu"}, "registered_name": null, "build_config": {"input_shape": [null, 25, 25, 64]}, "name": "activation_203", "inbound_nodes": [[["batch_normalization_203", 0, 0, {}]]]}, {"module": "keras.layers", "class_name": "Conv2D", "config": {"name": "conv2d_201", "trainable": false, "dtype": "float32", "filters": 48, "kernel_size": [1, 1], "strides": [1, 1], "padding": "same", "data_format": "channels_last", "dilation_rate": [1, 1], "groups": 1, "activation": "linear", "use_bias": false, "kernel_initializer": {"module": "keras.initializers", "class_name": "GlorotUniform", "config": {"seed": null}, "registered_name": null}, "bias_initializer": {"module": "keras.initializers", "class_name": "Zeros", "config": {}, "registered_name": null}, "kernel_regularizer": null, "bias_regularizer": null, "activity_regularizer": null, "kernel_constraint": null, "bias_constraint": null}, "registered_name": null, "build_config": {"input_shape": [null, 25, 25, 256]}, "name": "conv2d_201", "inbound_nodes": [[["mixed0", 0, 0, {}]]]}, {"module": "keras.layers", "class_name": "Conv2D", "config": {"name": "conv2d_204", "trainable": false, "dtype": "float32", "filters": 96, "kernel_size": [3, 3], "strides": [1, 1], "padding": "same", "data_format": "channels_last", "dilation_rate": [1, 1], "groups": 1, "activation": "linear", "use_bias": false, "kernel_initializer": {"module": "keras.initializers", "class_name": "GlorotUniform", "config": {"seed": null}, "registered_name": null}, "bias_initializer": {"module": "keras.initializers", "class_name": "Zeros", "config": {}, "registered_name": null}, "kernel_regularizer": null, "bias_regularizer": null, "activity_regularizer": null, "kernel_constraint": null, "bias_constraint": null}, "registered_name": null, "build_config": {"input_shape": [null, 25, 25, 64]}, "name": "conv2d_204", "inbound_nodes": [[["activation_203", 0, 0, {}]]]}, {"module": "keras.layers", "class_name": "BatchNormalization", "config": {"name": "batch_normalization_201", "trainable": false, "dtype": "float32", "axis": [3], "momentum": 0.99, "epsilon": 0.001, "center": true, "scale": false, "beta_initializer": {"module": "keras.initializers", "class_name": "Zeros", "config": {}, "registered_name": null}, "gamma_initializer": {"module": "keras.initializers", "class_name": "Ones", "config": {}, "registered_name": null}, "moving_mean_initializer": {"module": "keras.initializers", "class_name": "Zeros", "config": {}, "registered_name": null}, "moving_variance_initializer": {"module": "keras.initializers", "class_name": "Ones", "config": {}, "registered_name": null}, "beta_regularizer": null, "gamma_regularizer": null, "beta_constraint": null, "gamma_constraint": null}, "registered_name": null, "build_config": {"input_shape": [null, 25, 25, 48]}, "name": "batch_normalization_201", "inbound_nodes": [[["conv2d_201", 0, 0, {}]]]}, {"module": "keras.layers", "class_name": "BatchNormalization", "config": {"name": "batch_normalization_204", "trainable": false, "dtype": "float32", "axis": [3], "momentum": 0.99, "epsilon": 0.001, "center": true, "scale": false, "beta_initializer": {"module": "keras.initializers", "class_name": "Zeros", "config": {}, "registered_name": null}, "gamma_initializer": {"module": "keras.initializers", "class_name": "Ones", "config": {}, "registered_name": null}, "moving_mean_initializer": {"module": "keras.initializers", "class_name": "Zeros", "config": {}, "registered_name": null}, "moving_variance_initializer": {"module": "keras.initializers", "class_name": "Ones", "config": {}, "registered_name": null}, "beta_regularizer": null, "gamma_regularizer": null, "beta_constraint": null, "gamma_constraint": null}, "registered_name": null, "build_config": {"input_shape": [null, 25, 25, 96]}, "name": "batch_normalization_204", "inbound_nodes": [[["conv2d_204", 0, 0, {}]]]}, {"module": "keras.layers", "class_name": "Activation", "config": {"name": "activation_201", "trainable": false, "dtype": "float32", "activation": "relu"}, "registered_name": null, "build_config": {"input_shape": [null, 25, 25, 48]}, "name": "activation_201", "inbound_nodes": [[["batch_normalization_201", 0, 0, {}]]]}, {"module": "keras.layers", "class_name": "Activation", "config": {"name": "activation_204", "trainable": false, "dtype": "float32", "activation": "relu"}, "registered_name": null, "build_config": {"input_shape": [null, 25, 25, 96]}, "name": "activation_204", "inbound_nodes": [[["batch_normalization_204", 0, 0, {}]]]}, {"module": "keras.layers", "class_name": "AveragePooling2D", "config": {"name": "average_pooling2d_19", "trainable": false, "dtype": "float32", "pool_size": [3, 3], "padding": "same", "strides": [1, 1], "data_format": "channels_last"}, "registered_name": null, "build_config": {"input_shape": [null, 25, 25, 256]}, "name": "average_pooling2d_19", "inbound_nodes": [[["mixed0", 0, 0, {}]]]}, {"module": "keras.layers", "class_name": "Conv2D", "config": {"name": "conv2d_200", "trainable": false, "dtype": "float32", "filters": 64, "kernel_size": [1, 1], "strides": [1, 1], "padding": "same", "data_format": "channels_last", "dilation_rate": [1, 1], "groups": 1, "activation": "linear", "use_bias": false, "kernel_initializer": {"module": "keras.initializers", "class_name": "GlorotUniform", "config": {"seed": null}, "registered_name": null}, "bias_initializer": {"module": "keras.initializers", "class_name": "Zeros", "config": {}, "registered_name": null}, "kernel_regularizer": null, "bias_regularizer": null, "activity_regularizer": null, "kernel_constraint": null, "bias_constraint": null}, "registered_name": null, "build_config": {"input_shape": [null, 25, 25, 256]}, "name": "conv2d_200", "inbound_nodes": [[["mixed0", 0, 0, {}]]]}, {"module": "keras.layers", "class_name": "Conv2D", "config": {"name": "conv2d_202", "trainable": false, "dtype": "float32", "filters": 64, "kernel_size": [5, 5], "strides": [1, 1], "padding": "same", "data_format": "channels_last", "dilation_rate": [1, 1], "groups": 1, "activation": "linear", "use_bias": false, "kernel_initializer": {"module": "keras.initializers", "class_name": "GlorotUniform", "config": {"seed": null}, "registered_name": null}, "bias_initializer": {"module": "keras.initializers", "class_name": "Zeros", "config": {}, "registered_name": null}, "kernel_regularizer": null, "bias_regularizer": null, "activity_regularizer": null, "kernel_constraint": null, "bias_constraint": null}, "registered_name": null, "build_config": {"input_shape": [null, 25, 25, 48]}, "name": "conv2d_202", "inbound_nodes": [[["activation_201", 0, 0, {}]]]}, {"module": "keras.layers", "class_name": "Conv2D", "config": {"name": "conv2d_205", "trainable": false, "dtype": "float32", "filters": 96, "kernel_size": [3, 3], "strides": [1, 1], "padding": "same", "data_format": "channels_last", "dilation_rate": [1, 1], "groups": 1, "activation": "linear", "use_bias": false, "kernel_initializer": {"module": "keras.initializers", "class_name": "GlorotUniform", "config": {"seed": null}, "registered_name": null}, "bias_initializer": {"module": "keras.initializers", "class_name": "Zeros", "config": {}, "registered_name": null}, "kernel_regularizer": null, "bias_regularizer": null, "activity_regularizer": null, "kernel_constraint": null, "bias_constraint": null}, "registered_name": null, "build_config": {"input_shape": [null, 25, 25, 96]}, "name": "conv2d_205", "inbound_nodes": [[["activation_204", 0, 0, {}]]]}, {"module": "keras.layers", "class_name": "Conv2D", "config": {"name": "conv2d_206", "trainable": false, "dtype": "float32", "filters": 64, "kernel_size": [1, 1], "strides": [1, 1], "padding": "same", "data_format": "channels_last", "dilation_rate": [1, 1], "groups": 1, "activation": "linear", "use_bias": false, "kernel_initializer": {"module": "keras.initializers", "class_name": "GlorotUniform", "config": {"seed": null}, "registered_name": null}, "bias_initializer": {"module": "keras.initializers", "class_name": "Zeros", "config": {}, "registered_name": null}, "kernel_regularizer": null, "bias_regularizer": null, "activity_regularizer": null, "kernel_constraint": null, "bias_constraint": null}, "registered_name": null, "build_config": {"input_shape": [null, 25, 25, 256]}, "name": "conv2d_206", "inbound_nodes": [[["average_pooling2d_19", 0, 0, {}]]]}, {"module": "keras.layers", "class_name": "BatchNormalization", "config": {"name": "batch_normalization_200", "trainable": false, "dtype": "float32", "axis": [3], "momentum": 0.99, "epsilon": 0.001, "center": true, "scale": false, "beta_initializer": {"module": "keras.initializers", "class_name": "Zeros", "config": {}, "registered_name": null}, "gamma_initializer": {"module": "keras.initializers", "class_name": "Ones", "config": {}, "registered_name": null}, "moving_mean_initializer": {"module": "keras.initializers", "class_name": "Zeros", "config": {}, "registered_name": null}, "moving_variance_initializer": {"module": "keras.initializers", "class_name": "Ones", "config": {}, "registered_name": null}, "beta_regularizer": null, "gamma_regularizer": null, "beta_constraint": null, "gamma_constraint": null}, "registered_name": null, "build_config": {"input_shape": [null, 25, 25, 64]}, "name": "batch_normalization_200", "inbound_nodes": [[["conv2d_200", 0, 0, {}]]]}, {"module": "keras.layers", "class_name": "BatchNormalization", "config": {"name": "batch_normalization_202", "trainable": false, "dtype": "float32", "axis": [3], "momentum": 0.99, "epsilon": 0.001, "center": true, "scale": false, "beta_initializer": {"module": "keras.initializers", "class_name": "Zeros", "config": {}, "registered_name": null}, "gamma_initializer": {"module": "keras.initializers", "class_name": "Ones", "config": {}, "registered_name": null}, "moving_mean_initializer": {"module": "keras.initializers", "class_name": "Zeros", "config": {}, "registered_name": null}, "moving_variance_initializer": {"module": "keras.initializers", "class_name": "Ones", "config": {}, "registered_name": null}, "beta_regularizer": null, "gamma_regularizer": null, "beta_constraint": null, "gamma_constraint": null}, "registered_name": null, "build_config": {"input_shape": [null, 25, 25, 64]}, "name": "batch_normalization_202", "inbound_nodes": [[["conv2d_202", 0, 0, {}]]]}, {"module": "keras.layers", "class_name": "BatchNormalization", "config": {"name": "batch_normalization_205", "trainable": false, "dtype": "float32", "axis": [3], "momentum": 0.99, "epsilon": 0.001, "center": true, "scale": false, "beta_initializer": {"module": "keras.initializers", "class_name": "Zeros", "config": {}, "registered_name": null}, "gamma_initializer": {"module": "keras.initializers", "class_name": "Ones", "config": {}, "registered_name": null}, "moving_mean_initializer": {"module": "keras.initializers", "class_name": "Zeros", "config": {}, "registered_name": null}, "moving_variance_initializer": {"module": "keras.initializers", "class_name": "Ones", "config": {}, "registered_name": null}, "beta_regularizer": null, "gamma_regularizer": null, "beta_constraint": null, "gamma_constraint": null}, "registered_name": null, "build_config": {"input_shape": [null, 25, 25, 96]}, "name": "batch_normalization_205", "inbound_nodes": [[["conv2d_205", 0, 0, {}]]]}, {"module": "keras.layers", "class_name": "BatchNormalization", "config": {"name": "batch_normalization_206", "trainable": false, "dtype": "float32", "axis": [3], "momentum": 0.99, "epsilon": 0.001, "center": true, "scale": false, "beta_initializer": {"module": "keras.initializers", "class_name": "Zeros", "config": {}, "registered_name": null}, "gamma_initializer": {"module": "keras.initializers", "class_name": "Ones", "config": {}, "registered_name": null}, "moving_mean_initializer": {"module": "keras.initializers", "class_name": "Zeros", "config": {}, "registered_name": null}, "moving_variance_initializer": {"module": "keras.initializers", "class_name": "Ones", "config": {}, "registered_name": null}, "beta_regularizer": null, "gamma_regularizer": null, "beta_constraint": null, "gamma_constraint": null}, "registered_name": null, "build_config": {"input_shape": [null, 25, 25, 64]}, "name": "batch_normalization_206", "inbound_nodes": [[["conv2d_206", 0, 0, {}]]]}, {"module": "keras.layers", "class_name": "Activation", "config": {"name": "activation_200", "trainable": false, "dtype": "float32", "activation": "relu"}, "registered_name": null, "build_config": {"input_shape": [null, 25, 25, 64]}, "name": "activation_200", "inbound_nodes": [[["batch_normalization_200", 0, 0, {}]]]}, {"module": "keras.layers", "class_name": "Activation", "config": {"name": "activation_202", "trainable": false, "dtype": "float32", "activation": "relu"}, "registered_name": null, "build_config": {"input_shape": [null, 25, 25, 64]}, "name": "activation_202", "inbound_nodes": [[["batch_normalization_202", 0, 0, {}]]]}, {"module": "keras.layers", "class_name": "Activation", "config": {"name": "activation_205", "trainable": false, "dtype": "float32", "activation": "relu"}, "registered_name": null, "build_config": {"input_shape": [null, 25, 25, 96]}, "name": "activation_205", "inbound_nodes": [[["batch_normalization_205", 0, 0, {}]]]}, {"module": "keras.layers", "class_name": "Activation", "config": {"name": "activation_206", "trainable": false, "dtype": "float32", "activation": "relu"}, "registered_name": null, "build_config": {"input_shape": [null, 25, 25, 64]}, "name": "activation_206", "inbound_nodes": [[["batch_normalization_206", 0, 0, {}]]]}, {"module": "keras.layers", "class_name": "Concatenate", "config": {"name": "mixed1", "trainable": false, "dtype": "float32", "axis": 3}, "registered_name": null, "build_config": {"input_shape": [[null, 25, 25, 64], [null, 25, 25, 64], [null, 25, 25, 96], [null, 25, 25, 64]]}, "name": "mixed1", "inbound_nodes": [[["activation_200", 0, 0, {}], ["activation_202", 0, 0, {}], ["activation_205", 0, 0, {}], ["activation_206", 0, 0, {}]]]}, {"module": "keras.layers", "class_name": "Conv2D", "config": {"name": "conv2d_210", "trainable": false, "dtype": "float32", "filters": 64, "kernel_size": [1, 1], "strides": [1, 1], "padding": "same", "data_format": "channels_last", "dilation_rate": [1, 1], "groups": 1, "activation": "linear", "use_bias": false, "kernel_initializer": {"module": "keras.initializers", "class_name": "GlorotUniform", "config": {"seed": null}, "registered_name": null}, "bias_initializer": {"module": "keras.initializers", "class_name": "Zeros", "config": {}, "registered_name": null}, "kernel_regularizer": null, "bias_regularizer": null, "activity_regularizer": null, "kernel_constraint": null, "bias_constraint": null}, "registered_name": null, "build_config": {"input_shape": [null, 25, 25, 288]}, "name": "conv2d_210", "inbound_nodes": [[["mixed1", 0, 0, {}]]]}, {"module": "keras.layers", "class_name": "BatchNormalization", "config": {"name": "batch_normalization_210", "trainable": false, "dtype": "float32", "axis": [3], "momentum": 0.99, "epsilon": 0.001, "center": true, "scale": false, "beta_initializer": {"module": "keras.initializers", "class_name": "Zeros", "config": {}, "registered_name": null}, "gamma_initializer": {"module": "keras.initializers", "class_name": "Ones", "config": {}, "registered_name": null}, "moving_mean_initializer": {"module": "keras.initializers", "class_name": "Zeros", "config": {}, "registered_name": null}, "moving_variance_initializer": {"module": "keras.initializers", "class_name": "Ones", "config": {}, "registered_name": null}, "beta_regularizer": null, "gamma_regularizer": null, "beta_constraint": null, "gamma_constraint": null}, "registered_name": null, "build_config": {"input_shape": [null, 25, 25, 64]}, "name": "batch_normalization_210", "inbound_nodes": [[["conv2d_210", 0, 0, {}]]]}, {"module": "keras.layers", "class_name": "Activation", "config": {"name": "activation_210", "trainable": false, "dtype": "float32", "activation": "relu"}, "registered_name": null, "build_config": {"input_shape": [null, 25, 25, 64]}, "name": "activation_210", "inbound_nodes": [[["batch_normalization_210", 0, 0, {}]]]}, {"module": "keras.layers", "class_name": "Conv2D", "config": {"name": "conv2d_208", "trainable": false, "dtype": "float32", "filters": 48, "kernel_size": [1, 1], "strides": [1, 1], "padding": "same", "data_format": "channels_last", "dilation_rate": [1, 1], "groups": 1, "activation": "linear", "use_bias": false, "kernel_initializer": {"module": "keras.initializers", "class_name": "GlorotUniform", "config": {"seed": null}, "registered_name": null}, "bias_initializer": {"module": "keras.initializers", "class_name": "Zeros", "config": {}, "registered_name": null}, "kernel_regularizer": null, "bias_regularizer": null, "activity_regularizer": null, "kernel_constraint": null, "bias_constraint": null}, "registered_name": null, "build_config": {"input_shape": [null, 25, 25, 288]}, "name": "conv2d_208", "inbound_nodes": [[["mixed1", 0, 0, {}]]]}, {"module": "keras.layers", "class_name": "Conv2D", "config": {"name": "conv2d_211", "trainable": false, "dtype": "float32", "filters": 96, "kernel_size": [3, 3], "strides": [1, 1], "padding": "same", "data_format": "channels_last", "dilation_rate": [1, 1], "groups": 1, "activation": "linear", "use_bias": false, "kernel_initializer": {"module": "keras.initializers", "class_name": "GlorotUniform", "config": {"seed": null}, "registered_name": null}, "bias_initializer": {"module": "keras.initializers", "class_name": "Zeros", "config": {}, "registered_name": null}, "kernel_regularizer": null, "bias_regularizer": null, "activity_regularizer": null, "kernel_constraint": null, "bias_constraint": null}, "registered_name": null, "build_config": {"input_shape": [null, 25, 25, 64]}, "name": "conv2d_211", "inbound_nodes": [[["activation_210", 0, 0, {}]]]}, {"module": "keras.layers", "class_name": "BatchNormalization", "config": {"name": "batch_normalization_208", "trainable": false, "dtype": "float32", "axis": [3], "momentum": 0.99, "epsilon": 0.001, "center": true, "scale": false, "beta_initializer": {"module": "keras.initializers", "class_name": "Zeros", "config": {}, "registered_name": null}, "gamma_initializer": {"module": "keras.initializers", "class_name": "Ones", "config": {}, "registered_name": null}, "moving_mean_initializer": {"module": "keras.initializers", "class_name": "Zeros", "config": {}, "registered_name": null}, "moving_variance_initializer": {"module": "keras.initializers", "class_name": "Ones", "config": {}, "registered_name": null}, "beta_regularizer": null, "gamma_regularizer": null, "beta_constraint": null, "gamma_constraint": null}, "registered_name": null, "build_config": {"input_shape": [null, 25, 25, 48]}, "name": "batch_normalization_208", "inbound_nodes": [[["conv2d_208", 0, 0, {}]]]}, {"module": "keras.layers", "class_name": "BatchNormalization", "config": {"name": "batch_normalization_211", "trainable": false, "dtype": "float32", "axis": [3], "momentum": 0.99, "epsilon": 0.001, "center": true, "scale": false, "beta_initializer": {"module": "keras.initializers", "class_name": "Zeros", "config": {}, "registered_name": null}, "gamma_initializer": {"module": "keras.initializers", "class_name": "Ones", "config": {}, "registered_name": null}, "moving_mean_initializer": {"module": "keras.initializers", "class_name": "Zeros", "config": {}, "registered_name": null}, "moving_variance_initializer": {"module": "keras.initializers", "class_name": "Ones", "config": {}, "registered_name": null}, "beta_regularizer": null, "gamma_regularizer": null, "beta_constraint": null, "gamma_constraint": null}, "registered_name": null, "build_config": {"input_shape": [null, 25, 25, 96]}, "name": "batch_normalization_211", "inbound_nodes": [[["conv2d_211", 0, 0, {}]]]}, {"module": "keras.layers", "class_name": "Activation", "config": {"name": "activation_208", "trainable": false, "dtype": "float32", "activation": "relu"}, "registered_name": null, "build_config": {"input_shape": [null, 25, 25, 48]}, "name": "activation_208", "inbound_nodes": [[["batch_normalization_208", 0, 0, {}]]]}, {"module": "keras.layers", "class_name": "Activation", "config": {"name": "activation_211", "trainable": false, "dtype": "float32", "activation": "relu"}, "registered_name": null, "build_config": {"input_shape": [null, 25, 25, 96]}, "name": "activation_211", "inbound_nodes": [[["batch_normalization_211", 0, 0, {}]]]}, {"module": "keras.layers", "class_name": "AveragePooling2D", "config": {"name": "average_pooling2d_20", "trainable": false, "dtype": "float32", "pool_size": [3, 3], "padding": "same", "strides": [1, 1], "data_format": "channels_last"}, "registered_name": null, "build_config": {"input_shape": [null, 25, 25, 288]}, "name": "average_pooling2d_20", "inbound_nodes": [[["mixed1", 0, 0, {}]]]}, {"module": "keras.layers", "class_name": "Conv2D", "config": {"name": "conv2d_207", "trainable": false, "dtype": "float32", "filters": 64, "kernel_size": [1, 1], "strides": [1, 1], "padding": "same", "data_format": "channels_last", "dilation_rate": [1, 1], "groups": 1, "activation": "linear", "use_bias": false, "kernel_initializer": {"module": "keras.initializers", "class_name": "GlorotUniform", "config": {"seed": null}, "registered_name": null}, "bias_initializer": {"module": "keras.initializers", "class_name": "Zeros", "config": {}, "registered_name": null}, "kernel_regularizer": null, "bias_regularizer": null, "activity_regularizer": null, "kernel_constraint": null, "bias_constraint": null}, "registered_name": null, "build_config": {"input_shape": [null, 25, 25, 288]}, "name": "conv2d_207", "inbound_nodes": [[["mixed1", 0, 0, {}]]]}, {"module": "keras.layers", "class_name": "Conv2D", "config": {"name": "conv2d_209", "trainable": false, "dtype": "float32", "filters": 64, "kernel_size": [5, 5], "strides": [1, 1], "padding": "same", "data_format": "channels_last", "dilation_rate": [1, 1], "groups": 1, "activation": "linear", "use_bias": false, "kernel_initializer": {"module": "keras.initializers", "class_name": "GlorotUniform", "config": {"seed": null}, "registered_name": null}, "bias_initializer": {"module": "keras.initializers", "class_name": "Zeros", "config": {}, "registered_name": null}, "kernel_regularizer": null, "bias_regularizer": null, "activity_regularizer": null, "kernel_constraint": null, "bias_constraint": null}, "registered_name": null, "build_config": {"input_shape": [null, 25, 25, 48]}, "name": "conv2d_209", "inbound_nodes": [[["activation_208", 0, 0, {}]]]}, {"module": "keras.layers", "class_name": "Conv2D", "config": {"name": "conv2d_212", "trainable": false, "dtype": "float32", "filters": 96, "kernel_size": [3, 3], "strides": [1, 1], "padding": "same", "data_format": "channels_last", "dilation_rate": [1, 1], "groups": 1, "activation": "linear", "use_bias": false, "kernel_initializer": {"module": "keras.initializers", "class_name": "GlorotUniform", "config": {"seed": null}, "registered_name": null}, "bias_initializer": {"module": "keras.initializers", "class_name": "Zeros", "config": {}, "registered_name": null}, "kernel_regularizer": null, "bias_regularizer": null, "activity_regularizer": null, "kernel_constraint": null, "bias_constraint": null}, "registered_name": null, "build_config": {"input_shape": [null, 25, 25, 96]}, "name": "conv2d_212", "inbound_nodes": [[["activation_211", 0, 0, {}]]]}, {"module": "keras.layers", "class_name": "Conv2D", "config": {"name": "conv2d_213", "trainable": false, "dtype": "float32", "filters": 64, "kernel_size": [1, 1], "strides": [1, 1], "padding": "same", "data_format": "channels_last", "dilation_rate": [1, 1], "groups": 1, "activation": "linear", "use_bias": false, "kernel_initializer": {"module": "keras.initializers", "class_name": "GlorotUniform", "config": {"seed": null}, "registered_name": null}, "bias_initializer": {"module": "keras.initializers", "class_name": "Zeros", "config": {}, "registered_name": null}, "kernel_regularizer": null, "bias_regularizer": null, "activity_regularizer": null, "kernel_constraint": null, "bias_constraint": null}, "registered_name": null, "build_config": {"input_shape": [null, 25, 25, 288]}, "name": "conv2d_213", "inbound_nodes": [[["average_pooling2d_20", 0, 0, {}]]]}, {"module": "keras.layers", "class_name": "BatchNormalization", "config": {"name": "batch_normalization_207", "trainable": false, "dtype": "float32", "axis": [3], "momentum": 0.99, "epsilon": 0.001, "center": true, "scale": false, "beta_initializer": {"module": "keras.initializers", "class_name": "Zeros", "config": {}, "registered_name": null}, "gamma_initializer": {"module": "keras.initializers", "class_name": "Ones", "config": {}, "registered_name": null}, "moving_mean_initializer": {"module": "keras.initializers", "class_name": "Zeros", "config": {}, "registered_name": null}, "moving_variance_initializer": {"module": "keras.initializers", "class_name": "Ones", "config": {}, "registered_name": null}, "beta_regularizer": null, "gamma_regularizer": null, "beta_constraint": null, "gamma_constraint": null}, "registered_name": null, "build_config": {"input_shape": [null, 25, 25, 64]}, "name": "batch_normalization_207", "inbound_nodes": [[["conv2d_207", 0, 0, {}]]]}, {"module": "keras.layers", "class_name": "BatchNormalization", "config": {"name": "batch_normalization_209", "trainable": false, "dtype": "float32", "axis": [3], "momentum": 0.99, "epsilon": 0.001, "center": true, "scale": false, "beta_initializer": {"module": "keras.initializers", "class_name": "Zeros", "config": {}, "registered_name": null}, "gamma_initializer": {"module": "keras.initializers", "class_name": "Ones", "config": {}, "registered_name": null}, "moving_mean_initializer": {"module": "keras.initializers", "class_name": "Zeros", "config": {}, "registered_name": null}, "moving_variance_initializer": {"module": "keras.initializers", "class_name": "Ones", "config": {}, "registered_name": null}, "beta_regularizer": null, "gamma_regularizer": null, "beta_constraint": null, "gamma_constraint": null}, "registered_name": null, "build_config": {"input_shape": [null, 25, 25, 64]}, "name": "batch_normalization_209", "inbound_nodes": [[["conv2d_209", 0, 0, {}]]]}, {"module": "keras.layers", "class_name": "BatchNormalization", "config": {"name": "batch_normalization_212", "trainable": false, "dtype": "float32", "axis": [3], "momentum": 0.99, "epsilon": 0.001, "center": true, "scale": false, "beta_initializer": {"module": "keras.initializers", "class_name": "Zeros", "config": {}, "registered_name": null}, "gamma_initializer": {"module": "keras.initializers", "class_name": "Ones", "config": {}, "registered_name": null}, "moving_mean_initializer": {"module": "keras.initializers", "class_name": "Zeros", "config": {}, "registered_name": null}, "moving_variance_initializer": {"module": "keras.initializers", "class_name": "Ones", "config": {}, "registered_name": null}, "beta_regularizer": null, "gamma_regularizer": null, "beta_constraint": null, "gamma_constraint": null}, "registered_name": null, "build_config": {"input_shape": [null, 25, 25, 96]}, "name": "batch_normalization_212", "inbound_nodes": [[["conv2d_212", 0, 0, {}]]]}, {"module": "keras.layers", "class_name": "BatchNormalization", "config": {"name": "batch_normalization_213", "trainable": false, "dtype": "float32", "axis": [3], "momentum": 0.99, "epsilon": 0.001, "center": true, "scale": false, "beta_initializer": {"module": "keras.initializers", "class_name": "Zeros", "config": {}, "registered_name": null}, "gamma_initializer": {"module": "keras.initializers", "class_name": "Ones", "config": {}, "registered_name": null}, "moving_mean_initializer": {"module": "keras.initializers", "class_name": "Zeros", "config": {}, "registered_name": null}, "moving_variance_initializer": {"module": "keras.initializers", "class_name": "Ones", "config": {}, "registered_name": null}, "beta_regularizer": null, "gamma_regularizer": null, "beta_constraint": null, "gamma_constraint": null}, "registered_name": null, "build_config": {"input_shape": [null, 25, 25, 64]}, "name": "batch_normalization_213", "inbound_nodes": [[["conv2d_213", 0, 0, {}]]]}, {"module": "keras.layers", "class_name": "Activation", "config": {"name": "activation_207", "trainable": false, "dtype": "float32", "activation": "relu"}, "registered_name": null, "build_config": {"input_shape": [null, 25, 25, 64]}, "name": "activation_207", "inbound_nodes": [[["batch_normalization_207", 0, 0, {}]]]}, {"module": "keras.layers", "class_name": "Activation", "config": {"name": "activation_209", "trainable": false, "dtype": "float32", "activation": "relu"}, "registered_name": null, "build_config": {"input_shape": [null, 25, 25, 64]}, "name": "activation_209", "inbound_nodes": [[["batch_normalization_209", 0, 0, {}]]]}, {"module": "keras.layers", "class_name": "Activation", "config": {"name": "activation_212", "trainable": false, "dtype": "float32", "activation": "relu"}, "registered_name": null, "build_config": {"input_shape": [null, 25, 25, 96]}, "name": "activation_212", "inbound_nodes": [[["batch_normalization_212", 0, 0, {}]]]}, {"module": "keras.layers", "class_name": "Activation", "config": {"name": "activation_213", "trainable": false, "dtype": "float32", "activation": "relu"}, "registered_name": null, "build_config": {"input_shape": [null, 25, 25, 64]}, "name": "activation_213", "inbound_nodes": [[["batch_normalization_213", 0, 0, {}]]]}, {"module": "keras.layers", "class_name": "Concatenate", "config": {"name": "mixed2", "trainable": false, "dtype": "float32", "axis": 3}, "registered_name": null, "build_config": {"input_shape": [[null, 25, 25, 64], [null, 25, 25, 64], [null, 25, 25, 96], [null, 25, 25, 64]]}, "name": "mixed2", "inbound_nodes": [[["activation_207", 0, 0, {}], ["activation_209", 0, 0, {}], ["activation_212", 0, 0, {}], ["activation_213", 0, 0, {}]]]}, {"module": "keras.layers", "class_name": "Conv2D", "config": {"name": "conv2d_215", "trainable": false, "dtype": "float32", "filters": 64, "kernel_size": [1, 1], "strides": [1, 1], "padding": "same", "data_format": "channels_last", "dilation_rate": [1, 1], "groups": 1, "activation": "linear", "use_bias": false, "kernel_initializer": {"module": "keras.initializers", "class_name": "GlorotUniform", "config": {"seed": null}, "registered_name": null}, "bias_initializer": {"module": "keras.initializers", "class_name": "Zeros", "config": {}, "registered_name": null}, "kernel_regularizer": null, "bias_regularizer": null, "activity_regularizer": null, "kernel_constraint": null, "bias_constraint": null}, "registered_name": null, "build_config": {"input_shape": [null, 25, 25, 288]}, "name": "conv2d_215", "inbound_nodes": [[["mixed2", 0, 0, {}]]]}, {"module": "keras.layers", "class_name": "BatchNormalization", "config": {"name": "batch_normalization_215", "trainable": false, "dtype": "float32", "axis": [3], "momentum": 0.99, "epsilon": 0.001, "center": true, "scale": false, "beta_initializer": {"module": "keras.initializers", "class_name": "Zeros", "config": {}, "registered_name": null}, "gamma_initializer": {"module": "keras.initializers", "class_name": "Ones", "config": {}, "registered_name": null}, "moving_mean_initializer": {"module": "keras.initializers", "class_name": "Zeros", "config": {}, "registered_name": null}, "moving_variance_initializer": {"module": "keras.initializers", "class_name": "Ones", "config": {}, "registered_name": null}, "beta_regularizer": null, "gamma_regularizer": null, "beta_constraint": null, "gamma_constraint": null}, "registered_name": null, "build_config": {"input_shape": [null, 25, 25, 64]}, "name": "batch_normalization_215", "inbound_nodes": [[["conv2d_215", 0, 0, {}]]]}, {"module": "keras.layers", "class_name": "Activation", "config": {"name": "activation_215", "trainable": false, "dtype": "float32", "activation": "relu"}, "registered_name": null, "build_config": {"input_shape": [null, 25, 25, 64]}, "name": "activation_215", "inbound_nodes": [[["batch_normalization_215", 0, 0, {}]]]}, {"module": "keras.layers", "class_name": "Conv2D", "config": {"name": "conv2d_216", "trainable": false, "dtype": "float32", "filters": 96, "kernel_size": [3, 3], "strides": [1, 1], "padding": "same", "data_format": "channels_last", "dilation_rate": [1, 1], "groups": 1, "activation": "linear", "use_bias": false, "kernel_initializer": {"module": "keras.initializers", "class_name": "GlorotUniform", "config": {"seed": null}, "registered_name": null}, "bias_initializer": {"module": "keras.initializers", "class_name": "Zeros", "config": {}, "registered_name": null}, "kernel_regularizer": null, "bias_regularizer": null, "activity_regularizer": null, "kernel_constraint": null, "bias_constraint": null}, "registered_name": null, "build_config": {"input_shape": [null, 25, 25, 64]}, "name": "conv2d_216", "inbound_nodes": [[["activation_215", 0, 0, {}]]]}, {"module": "keras.layers", "class_name": "BatchNormalization", "config": {"name": "batch_normalization_216", "trainable": false, "dtype": "float32", "axis": [3], "momentum": 0.99, "epsilon": 0.001, "center": true, "scale": false, "beta_initializer": {"module": "keras.initializers", "class_name": "Zeros", "config": {}, "registered_name": null}, "gamma_initializer": {"module": "keras.initializers", "class_name": "Ones", "config": {}, "registered_name": null}, "moving_mean_initializer": {"module": "keras.initializers", "class_name": "Zeros", "config": {}, "registered_name": null}, "moving_variance_initializer": {"module": "keras.initializers", "class_name": "Ones", "config": {}, "registered_name": null}, "beta_regularizer": null, "gamma_regularizer": null, "beta_constraint": null, "gamma_constraint": null}, "registered_name": null, "build_config": {"input_shape": [null, 25, 25, 96]}, "name": "batch_normalization_216", "inbound_nodes": [[["conv2d_216", 0, 0, {}]]]}, {"module": "keras.layers", "class_name": "Activation", "config": {"name": "activation_216", "trainable": false, "dtype": "float32", "activation": "relu"}, "registered_name": null, "build_config": {"input_shape": [null, 25, 25, 96]}, "name": "activation_216", "inbound_nodes": [[["batch_normalization_216", 0, 0, {}]]]}, {"module": "keras.layers", "class_name": "Conv2D", "config": {"name": "conv2d_214", "trainable": false, "dtype": "float32", "filters": 384, "kernel_size": [3, 3], "strides": [2, 2], "padding": "valid", "data_format": "channels_last", "dilation_rate": [1, 1], "groups": 1, "activation": "linear", "use_bias": false, "kernel_initializer": {"module": "keras.initializers", "class_name": "GlorotUniform", "config": {"seed": null}, "registered_name": null}, "bias_initializer": {"module": "keras.initializers", "class_name": "Zeros", "config": {}, "registered_name": null}, "kernel_regularizer": null, "bias_regularizer": null, "activity_regularizer": null, "kernel_constraint": null, "bias_constraint": null}, "registered_name": null, "build_config": {"input_shape": [null, 25, 25, 288]}, "name": "conv2d_214", "inbound_nodes": [[["mixed2", 0, 0, {}]]]}, {"module": "keras.layers", "class_name": "Conv2D", "config": {"name": "conv2d_217", "trainable": false, "dtype": "float32", "filters": 96, "kernel_size": [3, 3], "strides": [2, 2], "padding": "valid", "data_format": "channels_last", "dilation_rate": [1, 1], "groups": 1, "activation": "linear", "use_bias": false, "kernel_initializer": {"module": "keras.initializers", "class_name": "GlorotUniform", "config": {"seed": null}, "registered_name": null}, "bias_initializer": {"module": "keras.initializers", "class_name": "Zeros", "config": {}, "registered_name": null}, "kernel_regularizer": null, "bias_regularizer": null, "activity_regularizer": null, "kernel_constraint": null, "bias_constraint": null}, "registered_name": null, "build_config": {"input_shape": [null, 25, 25, 96]}, "name": "conv2d_217", "inbound_nodes": [[["activation_216", 0, 0, {}]]]}, {"module": "keras.layers", "class_name": "BatchNormalization", "config": {"name": "batch_normalization_214", "trainable": false, "dtype": "float32", "axis": [3], "momentum": 0.99, "epsilon": 0.001, "center": true, "scale": false, "beta_initializer": {"module": "keras.initializers", "class_name": "Zeros", "config": {}, "registered_name": null}, "gamma_initializer": {"module": "keras.initializers", "class_name": "Ones", "config": {}, "registered_name": null}, "moving_mean_initializer": {"module": "keras.initializers", "class_name": "Zeros", "config": {}, "registered_name": null}, "moving_variance_initializer": {"module": "keras.initializers", "class_name": "Ones", "config": {}, "registered_name": null}, "beta_regularizer": null, "gamma_regularizer": null, "beta_constraint": null, "gamma_constraint": null}, "registered_name": null, "build_config": {"input_shape": [null, 12, 12, 384]}, "name": "batch_normalization_214", "inbound_nodes": [[["conv2d_214", 0, 0, {}]]]}, {"module": "keras.layers", "class_name": "BatchNormalization", "config": {"name": "batch_normalization_217", "trainable": false, "dtype": "float32", "axis": [3], "momentum": 0.99, "epsilon": 0.001, "center": true, "scale": false, "beta_initializer": {"module": "keras.initializers", "class_name": "Zeros", "config": {}, "registered_name": null}, "gamma_initializer": {"module": "keras.initializers", "class_name": "Ones", "config": {}, "registered_name": null}, "moving_mean_initializer": {"module": "keras.initializers", "class_name": "Zeros", "config": {}, "registered_name": null}, "moving_variance_initializer": {"module": "keras.initializers", "class_name": "Ones", "config": {}, "registered_name": null}, "beta_regularizer": null, "gamma_regularizer": null, "beta_constraint": null, "gamma_constraint": null}, "registered_name": null, "build_config": {"input_shape": [null, 12, 12, 96]}, "name": "batch_normalization_217", "inbound_nodes": [[["conv2d_217", 0, 0, {}]]]}, {"module": "keras.layers", "class_name": "Activation", "config": {"name": "activation_214", "trainable": false, "dtype": "float32", "activation": "relu"}, "registered_name": null, "build_config": {"input_shape": [null, 12, 12, 384]}, "name": "activation_214", "inbound_nodes": [[["batch_normalization_214", 0, 0, {}]]]}, {"module": "keras.layers", "class_name": "Activation", "config": {"name": "activation_217", "trainable": false, "dtype": "float32", "activation": "relu"}, "registered_name": null, "build_config": {"input_shape": [null, 12, 12, 96]}, "name": "activation_217", "inbound_nodes": [[["batch_normalization_217", 0, 0, {}]]]}, {"module": "keras.layers", "class_name": "MaxPooling2D", "config": {"name": "max_pooling2d_10", "trainable": false, "dtype": "float32", "pool_size": [3, 3], "padding": "valid", "strides": [2, 2], "data_format": "channels_last"}, "registered_name": null, "build_config": {"input_shape": [null, 25, 25, 288]}, "name": "max_pooling2d_10", "inbound_nodes": [[["mixed2", 0, 0, {}]]]}, {"module": "keras.layers", "class_name": "Concatenate", "config": {"name": "mixed3", "trainable": false, "dtype": "float32", "axis": 3}, "registered_name": null, "build_config": {"input_shape": [[null, 12, 12, 384], [null, 12, 12, 96], [null, 12, 12, 288]]}, "name": "mixed3", "inbound_nodes": [[["activation_214", 0, 0, {}], ["activation_217", 0, 0, {}], ["max_pooling2d_10", 0, 0, {}]]]}, {"module": "keras.layers", "class_name": "Conv2D", "config": {"name": "conv2d_222", "trainable": false, "dtype": "float32", "filters": 128, "kernel_size": [1, 1], "strides": [1, 1], "padding": "same", "data_format": "channels_last", "dilation_rate": [1, 1], "groups": 1, "activation": "linear", "use_bias": false, "kernel_initializer": {"module": "keras.initializers", "class_name": "GlorotUniform", "config": {"seed": null}, "registered_name": null}, "bias_initializer": {"module": "keras.initializers", "class_name": "Zeros", "config": {}, "registered_name": null}, "kernel_regularizer": null, "bias_regularizer": null, "activity_regularizer": null, "kernel_constraint": null, "bias_constraint": null}, "registered_name": null, "build_config": {"input_shape": [null, 12, 12, 768]}, "name": "conv2d_222", "inbound_nodes": [[["mixed3", 0, 0, {}]]]}, {"module": "keras.layers", "class_name": "BatchNormalization", "config": {"name": "batch_normalization_222", "trainable": false, "dtype": "float32", "axis": [3], "momentum": 0.99, "epsilon": 0.001, "center": true, "scale": false, "beta_initializer": {"module": "keras.initializers", "class_name": "Zeros", "config": {}, "registered_name": null}, "gamma_initializer": {"module": "keras.initializers", "class_name": "Ones", "config": {}, "registered_name": null}, "moving_mean_initializer": {"module": "keras.initializers", "class_name": "Zeros", "config": {}, "registered_name": null}, "moving_variance_initializer": {"module": "keras.initializers", "class_name": "Ones", "config": {}, "registered_name": null}, "beta_regularizer": null, "gamma_regularizer": null, "beta_constraint": null, "gamma_constraint": null}, "registered_name": null, "build_config": {"input_shape": [null, 12, 12, 128]}, "name": "batch_normalization_222", "inbound_nodes": [[["conv2d_222", 0, 0, {}]]]}, {"module": "keras.layers", "class_name": "Activation", "config": {"name": "activation_222", "trainable": false, "dtype": "float32", "activation": "relu"}, "registered_name": null, "build_config": {"input_shape": [null, 12, 12, 128]}, "name": "activation_222", "inbound_nodes": [[["batch_normalization_222", 0, 0, {}]]]}, {"module": "keras.layers", "class_name": "Conv2D", "config": {"name": "conv2d_223", "trainable": false, "dtype": "float32", "filters": 128, "kernel_size": [7, 1], "strides": [1, 1], "padding": "same", "data_format": "channels_last", "dilation_rate": [1, 1], "groups": 1, "activation": "linear", "use_bias": false, "kernel_initializer": {"module": "keras.initializers", "class_name": "GlorotUniform", "config": {"seed": null}, "registered_name": null}, "bias_initializer": {"module": "keras.initializers", "class_name": "Zeros", "config": {}, "registered_name": null}, "kernel_regularizer": null, "bias_regularizer": null, "activity_regularizer": null, "kernel_constraint": null, "bias_constraint": null}, "registered_name": null, "build_config": {"input_shape": [null, 12, 12, 128]}, "name": "conv2d_223", "inbound_nodes": [[["activation_222", 0, 0, {}]]]}, {"module": "keras.layers", "class_name": "BatchNormalization", "config": {"name": "batch_normalization_223", "trainable": false, "dtype": "float32", "axis": [3], "momentum": 0.99, "epsilon": 0.001, "center": true, "scale": false, "beta_initializer": {"module": "keras.initializers", "class_name": "Zeros", "config": {}, "registered_name": null}, "gamma_initializer": {"module": "keras.initializers", "class_name": "Ones", "config": {}, "registered_name": null}, "moving_mean_initializer": {"module": "keras.initializers", "class_name": "Zeros", "config": {}, "registered_name": null}, "moving_variance_initializer": {"module": "keras.initializers", "class_name": "Ones", "config": {}, "registered_name": null}, "beta_regularizer": null, "gamma_regularizer": null, "beta_constraint": null, "gamma_constraint": null}, "registered_name": null, "build_config": {"input_shape": [null, 12, 12, 128]}, "name": "batch_normalization_223", "inbound_nodes": [[["conv2d_223", 0, 0, {}]]]}, {"module": "keras.layers", "class_name": "Activation", "config": {"name": "activation_223", "trainable": false, "dtype": "float32", "activation": "relu"}, "registered_name": null, "build_config": {"input_shape": [null, 12, 12, 128]}, "name": "activation_223", "inbound_nodes": [[["batch_normalization_223", 0, 0, {}]]]}, {"module": "keras.layers", "class_name": "Conv2D", "config": {"name": "conv2d_219", "trainable": false, "dtype": "float32", "filters": 128, "kernel_size": [1, 1], "strides": [1, 1], "padding": "same", "data_format": "channels_last", "dilation_rate": [1, 1], "groups": 1, "activation": "linear", "use_bias": false, "kernel_initializer": {"module": "keras.initializers", "class_name": "GlorotUniform", "config": {"seed": null}, "registered_name": null}, "bias_initializer": {"module": "keras.initializers", "class_name": "Zeros", "config": {}, "registered_name": null}, "kernel_regularizer": null, "bias_regularizer": null, "activity_regularizer": null, "kernel_constraint": null, "bias_constraint": null}, "registered_name": null, "build_config": {"input_shape": [null, 12, 12, 768]}, "name": "conv2d_219", "inbound_nodes": [[["mixed3", 0, 0, {}]]]}, {"module": "keras.layers", "class_name": "Conv2D", "config": {"name": "conv2d_224", "trainable": false, "dtype": "float32", "filters": 128, "kernel_size": [1, 7], "strides": [1, 1], "padding": "same", "data_format": "channels_last", "dilation_rate": [1, 1], "groups": 1, "activation": "linear", "use_bias": false, "kernel_initializer": {"module": "keras.initializers", "class_name": "GlorotUniform", "config": {"seed": null}, "registered_name": null}, "bias_initializer": {"module": "keras.initializers", "class_name": "Zeros", "config": {}, "registered_name": null}, "kernel_regularizer": null, "bias_regularizer": null, "activity_regularizer": null, "kernel_constraint": null, "bias_constraint": null}, "registered_name": null, "build_config": {"input_shape": [null, 12, 12, 128]}, "name": "conv2d_224", "inbound_nodes": [[["activation_223", 0, 0, {}]]]}, {"module": "keras.layers", "class_name": "BatchNormalization", "config": {"name": "batch_normalization_219", "trainable": false, "dtype": "float32", "axis": [3], "momentum": 0.99, "epsilon": 0.001, "center": true, "scale": false, "beta_initializer": {"module": "keras.initializers", "class_name": "Zeros", "config": {}, "registered_name": null}, "gamma_initializer": {"module": "keras.initializers", "class_name": "Ones", "config": {}, "registered_name": null}, "moving_mean_initializer": {"module": "keras.initializers", "class_name": "Zeros", "config": {}, "registered_name": null}, "moving_variance_initializer": {"module": "keras.initializers", "class_name": "Ones", "config": {}, "registered_name": null}, "beta_regularizer": null, "gamma_regularizer": null, "beta_constraint": null, "gamma_constraint": null}, "registered_name": null, "build_config": {"input_shape": [null, 12, 12, 128]}, "name": "batch_normalization_219", "inbound_nodes": [[["conv2d_219", 0, 0, {}]]]}, {"module": "keras.layers", "class_name": "BatchNormalization", "config": {"name": "batch_normalization_224", "trainable": false, "dtype": "float32", "axis": [3], "momentum": 0.99, "epsilon": 0.001, "center": true, "scale": false, "beta_initializer": {"module": "keras.initializers", "class_name": "Zeros", "config": {}, "registered_name": null}, "gamma_initializer": {"module": "keras.initializers", "class_name": "Ones", "config": {}, "registered_name": null}, "moving_mean_initializer": {"module": "keras.initializers", "class_name": "Zeros", "config": {}, "registered_name": null}, "moving_variance_initializer": {"module": "keras.initializers", "class_name": "Ones", "config": {}, "registered_name": null}, "beta_regularizer": null, "gamma_regularizer": null, "beta_constraint": null, "gamma_constraint": null}, "registered_name": null, "build_config": {"input_shape": [null, 12, 12, 128]}, "name": "batch_normalization_224", "inbound_nodes": [[["conv2d_224", 0, 0, {}]]]}, {"module": "keras.layers", "class_name": "Activation", "config": {"name": "activation_219", "trainable": false, "dtype": "float32", "activation": "relu"}, "registered_name": null, "build_config": {"input_shape": [null, 12, 12, 128]}, "name": "activation_219", "inbound_nodes": [[["batch_normalization_219", 0, 0, {}]]]}, {"module": "keras.layers", "class_name": "Activation", "config": {"name": "activation_224", "trainable": false, "dtype": "float32", "activation": "relu"}, "registered_name": null, "build_config": {"input_shape": [null, 12, 12, 128]}, "name": "activation_224", "inbound_nodes": [[["batch_normalization_224", 0, 0, {}]]]}, {"module": "keras.layers", "class_name": "Conv2D", "config": {"name": "conv2d_220", "trainable": false, "dtype": "float32", "filters": 128, "kernel_size": [1, 7], "strides": [1, 1], "padding": "same", "data_format": "channels_last", "dilation_rate": [1, 1], "groups": 1, "activation": "linear", "use_bias": false, "kernel_initializer": {"module": "keras.initializers", "class_name": "GlorotUniform", "config": {"seed": null}, "registered_name": null}, "bias_initializer": {"module": "keras.initializers", "class_name": "Zeros", "config": {}, "registered_name": null}, "kernel_regularizer": null, "bias_regularizer": null, "activity_regularizer": null, "kernel_constraint": null, "bias_constraint": null}, "registered_name": null, "build_config": {"input_shape": [null, 12, 12, 128]}, "name": "conv2d_220", "inbound_nodes": [[["activation_219", 0, 0, {}]]]}, {"module": "keras.layers", "class_name": "Conv2D", "config": {"name": "conv2d_225", "trainable": false, "dtype": "float32", "filters": 128, "kernel_size": [7, 1], "strides": [1, 1], "padding": "same", "data_format": "channels_last", "dilation_rate": [1, 1], "groups": 1, "activation": "linear", "use_bias": false, "kernel_initializer": {"module": "keras.initializers", "class_name": "GlorotUniform", "config": {"seed": null}, "registered_name": null}, "bias_initializer": {"module": "keras.initializers", "class_name": "Zeros", "config": {}, "registered_name": null}, "kernel_regularizer": null, "bias_regularizer": null, "activity_regularizer": null, "kernel_constraint": null, "bias_constraint": null}, "registered_name": null, "build_config": {"input_shape": [null, 12, 12, 128]}, "name": "conv2d_225", "inbound_nodes": [[["activation_224", 0, 0, {}]]]}, {"module": "keras.layers", "class_name": "BatchNormalization", "config": {"name": "batch_normalization_220", "trainable": false, "dtype": "float32", "axis": [3], "momentum": 0.99, "epsilon": 0.001, "center": true, "scale": false, "beta_initializer": {"module": "keras.initializers", "class_name": "Zeros", "config": {}, "registered_name": null}, "gamma_initializer": {"module": "keras.initializers", "class_name": "Ones", "config": {}, "registered_name": null}, "moving_mean_initializer": {"module": "keras.initializers", "class_name": "Zeros", "config": {}, "registered_name": null}, "moving_variance_initializer": {"module": "keras.initializers", "class_name": "Ones", "config": {}, "registered_name": null}, "beta_regularizer": null, "gamma_regularizer": null, "beta_constraint": null, "gamma_constraint": null}, "registered_name": null, "build_config": {"input_shape": [null, 12, 12, 128]}, "name": "batch_normalization_220", "inbound_nodes": [[["conv2d_220", 0, 0, {}]]]}, {"module": "keras.layers", "class_name": "BatchNormalization", "config": {"name": "batch_normalization_225", "trainable": false, "dtype": "float32", "axis": [3], "momentum": 0.99, "epsilon": 0.001, "center": true, "scale": false, "beta_initializer": {"module": "keras.initializers", "class_name": "Zeros", "config": {}, "registered_name": null}, "gamma_initializer": {"module": "keras.initializers", "class_name": "Ones", "config": {}, "registered_name": null}, "moving_mean_initializer": {"module": "keras.initializers", "class_name": "Zeros", "config": {}, "registered_name": null}, "moving_variance_initializer": {"module": "keras.initializers", "class_name": "Ones", "config": {}, "registered_name": null}, "beta_regularizer": null, "gamma_regularizer": null, "beta_constraint": null, "gamma_constraint": null}, "registered_name": null, "build_config": {"input_shape": [null, 12, 12, 128]}, "name": "batch_normalization_225", "inbound_nodes": [[["conv2d_225", 0, 0, {}]]]}, {"module": "keras.layers", "class_name": "Activation", "config": {"name": "activation_220", "trainable": false, "dtype": "float32", "activation": "relu"}, "registered_name": null, "build_config": {"input_shape": [null, 12, 12, 128]}, "name": "activation_220", "inbound_nodes": [[["batch_normalization_220", 0, 0, {}]]]}, {"module": "keras.layers", "class_name": "Activation", "config": {"name": "activation_225", "trainable": false, "dtype": "float32", "activation": "relu"}, "registered_name": null, "build_config": {"input_shape": [null, 12, 12, 128]}, "name": "activation_225", "inbound_nodes": [[["batch_normalization_225", 0, 0, {}]]]}, {"module": "keras.layers", "class_name": "AveragePooling2D", "config": {"name": "average_pooling2d_21", "trainable": false, "dtype": "float32", "pool_size": [3, 3], "padding": "same", "strides": [1, 1], "data_format": "channels_last"}, "registered_name": null, "build_config": {"input_shape": [null, 12, 12, 768]}, "name": "average_pooling2d_21", "inbound_nodes": [[["mixed3", 0, 0, {}]]]}, {"module": "keras.layers", "class_name": "Conv2D", "config": {"name": "conv2d_218", "trainable": false, "dtype": "float32", "filters": 192, "kernel_size": [1, 1], "strides": [1, 1], "padding": "same", "data_format": "channels_last", "dilation_rate": [1, 1], "groups": 1, "activation": "linear", "use_bias": false, "kernel_initializer": {"module": "keras.initializers", "class_name": "GlorotUniform", "config": {"seed": null}, "registered_name": null}, "bias_initializer": {"module": "keras.initializers", "class_name": "Zeros", "config": {}, "registered_name": null}, "kernel_regularizer": null, "bias_regularizer": null, "activity_regularizer": null, "kernel_constraint": null, "bias_constraint": null}, "registered_name": null, "build_config": {"input_shape": [null, 12, 12, 768]}, "name": "conv2d_218", "inbound_nodes": [[["mixed3", 0, 0, {}]]]}, {"module": "keras.layers", "class_name": "Conv2D", "config": {"name": "conv2d_221", "trainable": false, "dtype": "float32", "filters": 192, "kernel_size": [7, 1], "strides": [1, 1], "padding": "same", "data_format": "channels_last", "dilation_rate": [1, 1], "groups": 1, "activation": "linear", "use_bias": false, "kernel_initializer": {"module": "keras.initializers", "class_name": "GlorotUniform", "config": {"seed": null}, "registered_name": null}, "bias_initializer": {"module": "keras.initializers", "class_name": "Zeros", "config": {}, "registered_name": null}, "kernel_regularizer": null, "bias_regularizer": null, "activity_regularizer": null, "kernel_constraint": null, "bias_constraint": null}, "registered_name": null, "build_config": {"input_shape": [null, 12, 12, 128]}, "name": "conv2d_221", "inbound_nodes": [[["activation_220", 0, 0, {}]]]}, {"module": "keras.layers", "class_name": "Conv2D", "config": {"name": "conv2d_226", "trainable": false, "dtype": "float32", "filters": 192, "kernel_size": [1, 7], "strides": [1, 1], "padding": "same", "data_format": "channels_last", "dilation_rate": [1, 1], "groups": 1, "activation": "linear", "use_bias": false, "kernel_initializer": {"module": "keras.initializers", "class_name": "GlorotUniform", "config": {"seed": null}, "registered_name": null}, "bias_initializer": {"module": "keras.initializers", "class_name": "Zeros", "config": {}, "registered_name": null}, "kernel_regularizer": null, "bias_regularizer": null, "activity_regularizer": null, "kernel_constraint": null, "bias_constraint": null}, "registered_name": null, "build_config": {"input_shape": [null, 12, 12, 128]}, "name": "conv2d_226", "inbound_nodes": [[["activation_225", 0, 0, {}]]]}, {"module": "keras.layers", "class_name": "Conv2D", "config": {"name": "conv2d_227", "trainable": false, "dtype": "float32", "filters": 192, "kernel_size": [1, 1], "strides": [1, 1], "padding": "same", "data_format": "channels_last", "dilation_rate": [1, 1], "groups": 1, "activation": "linear", "use_bias": false, "kernel_initializer": {"module": "keras.initializers", "class_name": "GlorotUniform", "config": {"seed": null}, "registered_name": null}, "bias_initializer": {"module": "keras.initializers", "class_name": "Zeros", "config": {}, "registered_name": null}, "kernel_regularizer": null, "bias_regularizer": null, "activity_regularizer": null, "kernel_constraint": null, "bias_constraint": null}, "registered_name": null, "build_config": {"input_shape": [null, 12, 12, 768]}, "name": "conv2d_227", "inbound_nodes": [[["average_pooling2d_21", 0, 0, {}]]]}, {"module": "keras.layers", "class_name": "BatchNormalization", "config": {"name": "batch_normalization_218", "trainable": false, "dtype": "float32", "axis": [3], "momentum": 0.99, "epsilon": 0.001, "center": true, "scale": false, "beta_initializer": {"module": "keras.initializers", "class_name": "Zeros", "config": {}, "registered_name": null}, "gamma_initializer": {"module": "keras.initializers", "class_name": "Ones", "config": {}, "registered_name": null}, "moving_mean_initializer": {"module": "keras.initializers", "class_name": "Zeros", "config": {}, "registered_name": null}, "moving_variance_initializer": {"module": "keras.initializers", "class_name": "Ones", "config": {}, "registered_name": null}, "beta_regularizer": null, "gamma_regularizer": null, "beta_constraint": null, "gamma_constraint": null}, "registered_name": null, "build_config": {"input_shape": [null, 12, 12, 192]}, "name": "batch_normalization_218", "inbound_nodes": [[["conv2d_218", 0, 0, {}]]]}, {"module": "keras.layers", "class_name": "BatchNormalization", "config": {"name": "batch_normalization_221", "trainable": false, "dtype": "float32", "axis": [3], "momentum": 0.99, "epsilon": 0.001, "center": true, "scale": false, "beta_initializer": {"module": "keras.initializers", "class_name": "Zeros", "config": {}, "registered_name": null}, "gamma_initializer": {"module": "keras.initializers", "class_name": "Ones", "config": {}, "registered_name": null}, "moving_mean_initializer": {"module": "keras.initializers", "class_name": "Zeros", "config": {}, "registered_name": null}, "moving_variance_initializer": {"module": "keras.initializers", "class_name": "Ones", "config": {}, "registered_name": null}, "beta_regularizer": null, "gamma_regularizer": null, "beta_constraint": null, "gamma_constraint": null}, "registered_name": null, "build_config": {"input_shape": [null, 12, 12, 192]}, "name": "batch_normalization_221", "inbound_nodes": [[["conv2d_221", 0, 0, {}]]]}, {"module": "keras.layers", "class_name": "BatchNormalization", "config": {"name": "batch_normalization_226", "trainable": false, "dtype": "float32", "axis": [3], "momentum": 0.99, "epsilon": 0.001, "center": true, "scale": false, "beta_initializer": {"module": "keras.initializers", "class_name": "Zeros", "config": {}, "registered_name": null}, "gamma_initializer": {"module": "keras.initializers", "class_name": "Ones", "config": {}, "registered_name": null}, "moving_mean_initializer": {"module": "keras.initializers", "class_name": "Zeros", "config": {}, "registered_name": null}, "moving_variance_initializer": {"module": "keras.initializers", "class_name": "Ones", "config": {}, "registered_name": null}, "beta_regularizer": null, "gamma_regularizer": null, "beta_constraint": null, "gamma_constraint": null}, "registered_name": null, "build_config": {"input_shape": [null, 12, 12, 192]}, "name": "batch_normalization_226", "inbound_nodes": [[["conv2d_226", 0, 0, {}]]]}, {"module": "keras.layers", "class_name": "BatchNormalization", "config": {"name": "batch_normalization_227", "trainable": false, "dtype": "float32", "axis": [3], "momentum": 0.99, "epsilon": 0.001, "center": true, "scale": false, "beta_initializer": {"module": "keras.initializers", "class_name": "Zeros", "config": {}, "registered_name": null}, "gamma_initializer": {"module": "keras.initializers", "class_name": "Ones", "config": {}, "registered_name": null}, "moving_mean_initializer": {"module": "keras.initializers", "class_name": "Zeros", "config": {}, "registered_name": null}, "moving_variance_initializer": {"module": "keras.initializers", "class_name": "Ones", "config": {}, "registered_name": null}, "beta_regularizer": null, "gamma_regularizer": null, "beta_constraint": null, "gamma_constraint": null}, "registered_name": null, "build_config": {"input_shape": [null, 12, 12, 192]}, "name": "batch_normalization_227", "inbound_nodes": [[["conv2d_227", 0, 0, {}]]]}, {"module": "keras.layers", "class_name": "Activation", "config": {"name": "activation_218", "trainable": false, "dtype": "float32", "activation": "relu"}, "registered_name": null, "build_config": {"input_shape": [null, 12, 12, 192]}, "name": "activation_218", "inbound_nodes": [[["batch_normalization_218", 0, 0, {}]]]}, {"module": "keras.layers", "class_name": "Activation", "config": {"name": "activation_221", "trainable": false, "dtype": "float32", "activation": "relu"}, "registered_name": null, "build_config": {"input_shape": [null, 12, 12, 192]}, "name": "activation_221", "inbound_nodes": [[["batch_normalization_221", 0, 0, {}]]]}, {"module": "keras.layers", "class_name": "Activation", "config": {"name": "activation_226", "trainable": false, "dtype": "float32", "activation": "relu"}, "registered_name": null, "build_config": {"input_shape": [null, 12, 12, 192]}, "name": "activation_226", "inbound_nodes": [[["batch_normalization_226", 0, 0, {}]]]}, {"module": "keras.layers", "class_name": "Activation", "config": {"name": "activation_227", "trainable": false, "dtype": "float32", "activation": "relu"}, "registered_name": null, "build_config": {"input_shape": [null, 12, 12, 192]}, "name": "activation_227", "inbound_nodes": [[["batch_normalization_227", 0, 0, {}]]]}, {"module": "keras.layers", "class_name": "Concatenate", "config": {"name": "mixed4", "trainable": false, "dtype": "float32", "axis": 3}, "registered_name": null, "build_config": {"input_shape": [[null, 12, 12, 192], [null, 12, 12, 192], [null, 12, 12, 192], [null, 12, 12, 192]]}, "name": "mixed4", "inbound_nodes": [[["activation_218", 0, 0, {}], ["activation_221", 0, 0, {}], ["activation_226", 0, 0, {}], ["activation_227", 0, 0, {}]]]}, {"module": "keras.layers", "class_name": "Conv2D", "config": {"name": "conv2d_232", "trainable": false, "dtype": "float32", "filters": 160, "kernel_size": [1, 1], "strides": [1, 1], "padding": "same", "data_format": "channels_last", "dilation_rate": [1, 1], "groups": 1, "activation": "linear", "use_bias": false, "kernel_initializer": {"module": "keras.initializers", "class_name": "GlorotUniform", "config": {"seed": null}, "registered_name": null}, "bias_initializer": {"module": "keras.initializers", "class_name": "Zeros", "config": {}, "registered_name": null}, "kernel_regularizer": null, "bias_regularizer": null, "activity_regularizer": null, "kernel_constraint": null, "bias_constraint": null}, "registered_name": null, "build_config": {"input_shape": [null, 12, 12, 768]}, "name": "conv2d_232", "inbound_nodes": [[["mixed4", 0, 0, {}]]]}, {"module": "keras.layers", "class_name": "BatchNormalization", "config": {"name": "batch_normalization_232", "trainable": false, "dtype": "float32", "axis": [3], "momentum": 0.99, "epsilon": 0.001, "center": true, "scale": false, "beta_initializer": {"module": "keras.initializers", "class_name": "Zeros", "config": {}, "registered_name": null}, "gamma_initializer": {"module": "keras.initializers", "class_name": "Ones", "config": {}, "registered_name": null}, "moving_mean_initializer": {"module": "keras.initializers", "class_name": "Zeros", "config": {}, "registered_name": null}, "moving_variance_initializer": {"module": "keras.initializers", "class_name": "Ones", "config": {}, "registered_name": null}, "beta_regularizer": null, "gamma_regularizer": null, "beta_constraint": null, "gamma_constraint": null}, "registered_name": null, "build_config": {"input_shape": [null, 12, 12, 160]}, "name": "batch_normalization_232", "inbound_nodes": [[["conv2d_232", 0, 0, {}]]]}, {"module": "keras.layers", "class_name": "Activation", "config": {"name": "activation_232", "trainable": false, "dtype": "float32", "activation": "relu"}, "registered_name": null, "build_config": {"input_shape": [null, 12, 12, 160]}, "name": "activation_232", "inbound_nodes": [[["batch_normalization_232", 0, 0, {}]]]}, {"module": "keras.layers", "class_name": "Conv2D", "config": {"name": "conv2d_233", "trainable": false, "dtype": "float32", "filters": 160, "kernel_size": [7, 1], "strides": [1, 1], "padding": "same", "data_format": "channels_last", "dilation_rate": [1, 1], "groups": 1, "activation": "linear", "use_bias": false, "kernel_initializer": {"module": "keras.initializers", "class_name": "GlorotUniform", "config": {"seed": null}, "registered_name": null}, "bias_initializer": {"module": "keras.initializers", "class_name": "Zeros", "config": {}, "registered_name": null}, "kernel_regularizer": null, "bias_regularizer": null, "activity_regularizer": null, "kernel_constraint": null, "bias_constraint": null}, "registered_name": null, "build_config": {"input_shape": [null, 12, 12, 160]}, "name": "conv2d_233", "inbound_nodes": [[["activation_232", 0, 0, {}]]]}, {"module": "keras.layers", "class_name": "BatchNormalization", "config": {"name": "batch_normalization_233", "trainable": false, "dtype": "float32", "axis": [3], "momentum": 0.99, "epsilon": 0.001, "center": true, "scale": false, "beta_initializer": {"module": "keras.initializers", "class_name": "Zeros", "config": {}, "registered_name": null}, "gamma_initializer": {"module": "keras.initializers", "class_name": "Ones", "config": {}, "registered_name": null}, "moving_mean_initializer": {"module": "keras.initializers", "class_name": "Zeros", "config": {}, "registered_name": null}, "moving_variance_initializer": {"module": "keras.initializers", "class_name": "Ones", "config": {}, "registered_name": null}, "beta_regularizer": null, "gamma_regularizer": null, "beta_constraint": null, "gamma_constraint": null}, "registered_name": null, "build_config": {"input_shape": [null, 12, 12, 160]}, "name": "batch_normalization_233", "inbound_nodes": [[["conv2d_233", 0, 0, {}]]]}, {"module": "keras.layers", "class_name": "Activation", "config": {"name": "activation_233", "trainable": false, "dtype": "float32", "activation": "relu"}, "registered_name": null, "build_config": {"input_shape": [null, 12, 12, 160]}, "name": "activation_233", "inbound_nodes": [[["batch_normalization_233", 0, 0, {}]]]}, {"module": "keras.layers", "class_name": "Conv2D", "config": {"name": "conv2d_229", "trainable": false, "dtype": "float32", "filters": 160, "kernel_size": [1, 1], "strides": [1, 1], "padding": "same", "data_format": "channels_last", "dilation_rate": [1, 1], "groups": 1, "activation": "linear", "use_bias": false, "kernel_initializer": {"module": "keras.initializers", "class_name": "GlorotUniform", "config": {"seed": null}, "registered_name": null}, "bias_initializer": {"module": "keras.initializers", "class_name": "Zeros", "config": {}, "registered_name": null}, "kernel_regularizer": null, "bias_regularizer": null, "activity_regularizer": null, "kernel_constraint": null, "bias_constraint": null}, "registered_name": null, "build_config": {"input_shape": [null, 12, 12, 768]}, "name": "conv2d_229", "inbound_nodes": [[["mixed4", 0, 0, {}]]]}, {"module": "keras.layers", "class_name": "Conv2D", "config": {"name": "conv2d_234", "trainable": false, "dtype": "float32", "filters": 160, "kernel_size": [1, 7], "strides": [1, 1], "padding": "same", "data_format": "channels_last", "dilation_rate": [1, 1], "groups": 1, "activation": "linear", "use_bias": false, "kernel_initializer": {"module": "keras.initializers", "class_name": "GlorotUniform", "config": {"seed": null}, "registered_name": null}, "bias_initializer": {"module": "keras.initializers", "class_name": "Zeros", "config": {}, "registered_name": null}, "kernel_regularizer": null, "bias_regularizer": null, "activity_regularizer": null, "kernel_constraint": null, "bias_constraint": null}, "registered_name": null, "build_config": {"input_shape": [null, 12, 12, 160]}, "name": "conv2d_234", "inbound_nodes": [[["activation_233", 0, 0, {}]]]}, {"module": "keras.layers", "class_name": "BatchNormalization", "config": {"name": "batch_normalization_229", "trainable": false, "dtype": "float32", "axis": [3], "momentum": 0.99, "epsilon": 0.001, "center": true, "scale": false, "beta_initializer": {"module": "keras.initializers", "class_name": "Zeros", "config": {}, "registered_name": null}, "gamma_initializer": {"module": "keras.initializers", "class_name": "Ones", "config": {}, "registered_name": null}, "moving_mean_initializer": {"module": "keras.initializers", "class_name": "Zeros", "config": {}, "registered_name": null}, "moving_variance_initializer": {"module": "keras.initializers", "class_name": "Ones", "config": {}, "registered_name": null}, "beta_regularizer": null, "gamma_regularizer": null, "beta_constraint": null, "gamma_constraint": null}, "registered_name": null, "build_config": {"input_shape": [null, 12, 12, 160]}, "name": "batch_normalization_229", "inbound_nodes": [[["conv2d_229", 0, 0, {}]]]}, {"module": "keras.layers", "class_name": "BatchNormalization", "config": {"name": "batch_normalization_234", "trainable": false, "dtype": "float32", "axis": [3], "momentum": 0.99, "epsilon": 0.001, "center": true, "scale": false, "beta_initializer": {"module": "keras.initializers", "class_name": "Zeros", "config": {}, "registered_name": null}, "gamma_initializer": {"module": "keras.initializers", "class_name": "Ones", "config": {}, "registered_name": null}, "moving_mean_initializer": {"module": "keras.initializers", "class_name": "Zeros", "config": {}, "registered_name": null}, "moving_variance_initializer": {"module": "keras.initializers", "class_name": "Ones", "config": {}, "registered_name": null}, "beta_regularizer": null, "gamma_regularizer": null, "beta_constraint": null, "gamma_constraint": null}, "registered_name": null, "build_config": {"input_shape": [null, 12, 12, 160]}, "name": "batch_normalization_234", "inbound_nodes": [[["conv2d_234", 0, 0, {}]]]}, {"module": "keras.layers", "class_name": "Activation", "config": {"name": "activation_229", "trainable": false, "dtype": "float32", "activation": "relu"}, "registered_name": null, "build_config": {"input_shape": [null, 12, 12, 160]}, "name": "activation_229", "inbound_nodes": [[["batch_normalization_229", 0, 0, {}]]]}, {"module": "keras.layers", "class_name": "Activation", "config": {"name": "activation_234", "trainable": false, "dtype": "float32", "activation": "relu"}, "registered_name": null, "build_config": {"input_shape": [null, 12, 12, 160]}, "name": "activation_234", "inbound_nodes": [[["batch_normalization_234", 0, 0, {}]]]}, {"module": "keras.layers", "class_name": "Conv2D", "config": {"name": "conv2d_230", "trainable": false, "dtype": "float32", "filters": 160, "kernel_size": [1, 7], "strides": [1, 1], "padding": "same", "data_format": "channels_last", "dilation_rate": [1, 1], "groups": 1, "activation": "linear", "use_bias": false, "kernel_initializer": {"module": "keras.initializers", "class_name": "GlorotUniform", "config": {"seed": null}, "registered_name": null}, "bias_initializer": {"module": "keras.initializers", "class_name": "Zeros", "config": {}, "registered_name": null}, "kernel_regularizer": null, "bias_regularizer": null, "activity_regularizer": null, "kernel_constraint": null, "bias_constraint": null}, "registered_name": null, "build_config": {"input_shape": [null, 12, 12, 160]}, "name": "conv2d_230", "inbound_nodes": [[["activation_229", 0, 0, {}]]]}, {"module": "keras.layers", "class_name": "Conv2D", "config": {"name": "conv2d_235", "trainable": false, "dtype": "float32", "filters": 160, "kernel_size": [7, 1], "strides": [1, 1], "padding": "same", "data_format": "channels_last", "dilation_rate": [1, 1], "groups": 1, "activation": "linear", "use_bias": false, "kernel_initializer": {"module": "keras.initializers", "class_name": "GlorotUniform", "config": {"seed": null}, "registered_name": null}, "bias_initializer": {"module": "keras.initializers", "class_name": "Zeros", "config": {}, "registered_name": null}, "kernel_regularizer": null, "bias_regularizer": null, "activity_regularizer": null, "kernel_constraint": null, "bias_constraint": null}, "registered_name": null, "build_config": {"input_shape": [null, 12, 12, 160]}, "name": "conv2d_235", "inbound_nodes": [[["activation_234", 0, 0, {}]]]}, {"module": "keras.layers", "class_name": "BatchNormalization", "config": {"name": "batch_normalization_230", "trainable": false, "dtype": "float32", "axis": [3], "momentum": 0.99, "epsilon": 0.001, "center": true, "scale": false, "beta_initializer": {"module": "keras.initializers", "class_name": "Zeros", "config": {}, "registered_name": null}, "gamma_initializer": {"module": "keras.initializers", "class_name": "Ones", "config": {}, "registered_name": null}, "moving_mean_initializer": {"module": "keras.initializers", "class_name": "Zeros", "config": {}, "registered_name": null}, "moving_variance_initializer": {"module": "keras.initializers", "class_name": "Ones", "config": {}, "registered_name": null}, "beta_regularizer": null, "gamma_regularizer": null, "beta_constraint": null, "gamma_constraint": null}, "registered_name": null, "build_config": {"input_shape": [null, 12, 12, 160]}, "name": "batch_normalization_230", "inbound_nodes": [[["conv2d_230", 0, 0, {}]]]}, {"module": "keras.layers", "class_name": "BatchNormalization", "config": {"name": "batch_normalization_235", "trainable": false, "dtype": "float32", "axis": [3], "momentum": 0.99, "epsilon": 0.001, "center": true, "scale": false, "beta_initializer": {"module": "keras.initializers", "class_name": "Zeros", "config": {}, "registered_name": null}, "gamma_initializer": {"module": "keras.initializers", "class_name": "Ones", "config": {}, "registered_name": null}, "moving_mean_initializer": {"module": "keras.initializers", "class_name": "Zeros", "config": {}, "registered_name": null}, "moving_variance_initializer": {"module": "keras.initializers", "class_name": "Ones", "config": {}, "registered_name": null}, "beta_regularizer": null, "gamma_regularizer": null, "beta_constraint": null, "gamma_constraint": null}, "registered_name": null, "build_config": {"input_shape": [null, 12, 12, 160]}, "name": "batch_normalization_235", "inbound_nodes": [[["conv2d_235", 0, 0, {}]]]}, {"module": "keras.layers", "class_name": "Activation", "config": {"name": "activation_230", "trainable": false, "dtype": "float32", "activation": "relu"}, "registered_name": null, "build_config": {"input_shape": [null, 12, 12, 160]}, "name": "activation_230", "inbound_nodes": [[["batch_normalization_230", 0, 0, {}]]]}, {"module": "keras.layers", "class_name": "Activation", "config": {"name": "activation_235", "trainable": false, "dtype": "float32", "activation": "relu"}, "registered_name": null, "build_config": {"input_shape": [null, 12, 12, 160]}, "name": "activation_235", "inbound_nodes": [[["batch_normalization_235", 0, 0, {}]]]}, {"module": "keras.layers", "class_name": "AveragePooling2D", "config": {"name": "average_pooling2d_22", "trainable": false, "dtype": "float32", "pool_size": [3, 3], "padding": "same", "strides": [1, 1], "data_format": "channels_last"}, "registered_name": null, "build_config": {"input_shape": [null, 12, 12, 768]}, "name": "average_pooling2d_22", "inbound_nodes": [[["mixed4", 0, 0, {}]]]}, {"module": "keras.layers", "class_name": "Conv2D", "config": {"name": "conv2d_228", "trainable": false, "dtype": "float32", "filters": 192, "kernel_size": [1, 1], "strides": [1, 1], "padding": "same", "data_format": "channels_last", "dilation_rate": [1, 1], "groups": 1, "activation": "linear", "use_bias": false, "kernel_initializer": {"module": "keras.initializers", "class_name": "GlorotUniform", "config": {"seed": null}, "registered_name": null}, "bias_initializer": {"module": "keras.initializers", "class_name": "Zeros", "config": {}, "registered_name": null}, "kernel_regularizer": null, "bias_regularizer": null, "activity_regularizer": null, "kernel_constraint": null, "bias_constraint": null}, "registered_name": null, "build_config": {"input_shape": [null, 12, 12, 768]}, "name": "conv2d_228", "inbound_nodes": [[["mixed4", 0, 0, {}]]]}, {"module": "keras.layers", "class_name": "Conv2D", "config": {"name": "conv2d_231", "trainable": false, "dtype": "float32", "filters": 192, "kernel_size": [7, 1], "strides": [1, 1], "padding": "same", "data_format": "channels_last", "dilation_rate": [1, 1], "groups": 1, "activation": "linear", "use_bias": false, "kernel_initializer": {"module": "keras.initializers", "class_name": "GlorotUniform", "config": {"seed": null}, "registered_name": null}, "bias_initializer": {"module": "keras.initializers", "class_name": "Zeros", "config": {}, "registered_name": null}, "kernel_regularizer": null, "bias_regularizer": null, "activity_regularizer": null, "kernel_constraint": null, "bias_constraint": null}, "registered_name": null, "build_config": {"input_shape": [null, 12, 12, 160]}, "name": "conv2d_231", "inbound_nodes": [[["activation_230", 0, 0, {}]]]}, {"module": "keras.layers", "class_name": "Conv2D", "config": {"name": "conv2d_236", "trainable": false, "dtype": "float32", "filters": 192, "kernel_size": [1, 7], "strides": [1, 1], "padding": "same", "data_format": "channels_last", "dilation_rate": [1, 1], "groups": 1, "activation": "linear", "use_bias": false, "kernel_initializer": {"module": "keras.initializers", "class_name": "GlorotUniform", "config": {"seed": null}, "registered_name": null}, "bias_initializer": {"module": "keras.initializers", "class_name": "Zeros", "config": {}, "registered_name": null}, "kernel_regularizer": null, "bias_regularizer": null, "activity_regularizer": null, "kernel_constraint": null, "bias_constraint": null}, "registered_name": null, "build_config": {"input_shape": [null, 12, 12, 160]}, "name": "conv2d_236", "inbound_nodes": [[["activation_235", 0, 0, {}]]]}, {"module": "keras.layers", "class_name": "Conv2D", "config": {"name": "conv2d_237", "trainable": false, "dtype": "float32", "filters": 192, "kernel_size": [1, 1], "strides": [1, 1], "padding": "same", "data_format": "channels_last", "dilation_rate": [1, 1], "groups": 1, "activation": "linear", "use_bias": false, "kernel_initializer": {"module": "keras.initializers", "class_name": "GlorotUniform", "config": {"seed": null}, "registered_name": null}, "bias_initializer": {"module": "keras.initializers", "class_name": "Zeros", "config": {}, "registered_name": null}, "kernel_regularizer": null, "bias_regularizer": null, "activity_regularizer": null, "kernel_constraint": null, "bias_constraint": null}, "registered_name": null, "build_config": {"input_shape": [null, 12, 12, 768]}, "name": "conv2d_237", "inbound_nodes": [[["average_pooling2d_22", 0, 0, {}]]]}, {"module": "keras.layers", "class_name": "BatchNormalization", "config": {"name": "batch_normalization_228", "trainable": false, "dtype": "float32", "axis": [3], "momentum": 0.99, "epsilon": 0.001, "center": true, "scale": false, "beta_initializer": {"module": "keras.initializers", "class_name": "Zeros", "config": {}, "registered_name": null}, "gamma_initializer": {"module": "keras.initializers", "class_name": "Ones", "config": {}, "registered_name": null}, "moving_mean_initializer": {"module": "keras.initializers", "class_name": "Zeros", "config": {}, "registered_name": null}, "moving_variance_initializer": {"module": "keras.initializers", "class_name": "Ones", "config": {}, "registered_name": null}, "beta_regularizer": null, "gamma_regularizer": null, "beta_constraint": null, "gamma_constraint": null}, "registered_name": null, "build_config": {"input_shape": [null, 12, 12, 192]}, "name": "batch_normalization_228", "inbound_nodes": [[["conv2d_228", 0, 0, {}]]]}, {"module": "keras.layers", "class_name": "BatchNormalization", "config": {"name": "batch_normalization_231", "trainable": false, "dtype": "float32", "axis": [3], "momentum": 0.99, "epsilon": 0.001, "center": true, "scale": false, "beta_initializer": {"module": "keras.initializers", "class_name": "Zeros", "config": {}, "registered_name": null}, "gamma_initializer": {"module": "keras.initializers", "class_name": "Ones", "config": {}, "registered_name": null}, "moving_mean_initializer": {"module": "keras.initializers", "class_name": "Zeros", "config": {}, "registered_name": null}, "moving_variance_initializer": {"module": "keras.initializers", "class_name": "Ones", "config": {}, "registered_name": null}, "beta_regularizer": null, "gamma_regularizer": null, "beta_constraint": null, "gamma_constraint": null}, "registered_name": null, "build_config": {"input_shape": [null, 12, 12, 192]}, "name": "batch_normalization_231", "inbound_nodes": [[["conv2d_231", 0, 0, {}]]]}, {"module": "keras.layers", "class_name": "BatchNormalization", "config": {"name": "batch_normalization_236", "trainable": false, "dtype": "float32", "axis": [3], "momentum": 0.99, "epsilon": 0.001, "center": true, "scale": false, "beta_initializer": {"module": "keras.initializers", "class_name": "Zeros", "config": {}, "registered_name": null}, "gamma_initializer": {"module": "keras.initializers", "class_name": "Ones", "config": {}, "registered_name": null}, "moving_mean_initializer": {"module": "keras.initializers", "class_name": "Zeros", "config": {}, "registered_name": null}, "moving_variance_initializer": {"module": "keras.initializers", "class_name": "Ones", "config": {}, "registered_name": null}, "beta_regularizer": null, "gamma_regularizer": null, "beta_constraint": null, "gamma_constraint": null}, "registered_name": null, "build_config": {"input_shape": [null, 12, 12, 192]}, "name": "batch_normalization_236", "inbound_nodes": [[["conv2d_236", 0, 0, {}]]]}, {"module": "keras.layers", "class_name": "BatchNormalization", "config": {"name": "batch_normalization_237", "trainable": false, "dtype": "float32", "axis": [3], "momentum": 0.99, "epsilon": 0.001, "center": true, "scale": false, "beta_initializer": {"module": "keras.initializers", "class_name": "Zeros", "config": {}, "registered_name": null}, "gamma_initializer": {"module": "keras.initializers", "class_name": "Ones", "config": {}, "registered_name": null}, "moving_mean_initializer": {"module": "keras.initializers", "class_name": "Zeros", "config": {}, "registered_name": null}, "moving_variance_initializer": {"module": "keras.initializers", "class_name": "Ones", "config": {}, "registered_name": null}, "beta_regularizer": null, "gamma_regularizer": null, "beta_constraint": null, "gamma_constraint": null}, "registered_name": null, "build_config": {"input_shape": [null, 12, 12, 192]}, "name": "batch_normalization_237", "inbound_nodes": [[["conv2d_237", 0, 0, {}]]]}, {"module": "keras.layers", "class_name": "Activation", "config": {"name": "activation_228", "trainable": false, "dtype": "float32", "activation": "relu"}, "registered_name": null, "build_config": {"input_shape": [null, 12, 12, 192]}, "name": "activation_228", "inbound_nodes": [[["batch_normalization_228", 0, 0, {}]]]}, {"module": "keras.layers", "class_name": "Activation", "config": {"name": "activation_231", "trainable": false, "dtype": "float32", "activation": "relu"}, "registered_name": null, "build_config": {"input_shape": [null, 12, 12, 192]}, "name": "activation_231", "inbound_nodes": [[["batch_normalization_231", 0, 0, {}]]]}, {"module": "keras.layers", "class_name": "Activation", "config": {"name": "activation_236", "trainable": false, "dtype": "float32", "activation": "relu"}, "registered_name": null, "build_config": {"input_shape": [null, 12, 12, 192]}, "name": "activation_236", "inbound_nodes": [[["batch_normalization_236", 0, 0, {}]]]}, {"module": "keras.layers", "class_name": "Activation", "config": {"name": "activation_237", "trainable": false, "dtype": "float32", "activation": "relu"}, "registered_name": null, "build_config": {"input_shape": [null, 12, 12, 192]}, "name": "activation_237", "inbound_nodes": [[["batch_normalization_237", 0, 0, {}]]]}, {"module": "keras.layers", "class_name": "Concatenate", "config": {"name": "mixed5", "trainable": false, "dtype": "float32", "axis": 3}, "registered_name": null, "build_config": {"input_shape": [[null, 12, 12, 192], [null, 12, 12, 192], [null, 12, 12, 192], [null, 12, 12, 192]]}, "name": "mixed5", "inbound_nodes": [[["activation_228", 0, 0, {}], ["activation_231", 0, 0, {}], ["activation_236", 0, 0, {}], ["activation_237", 0, 0, {}]]]}, {"module": "keras.layers", "class_name": "Conv2D", "config": {"name": "conv2d_242", "trainable": false, "dtype": "float32", "filters": 160, "kernel_size": [1, 1], "strides": [1, 1], "padding": "same", "data_format": "channels_last", "dilation_rate": [1, 1], "groups": 1, "activation": "linear", "use_bias": false, "kernel_initializer": {"module": "keras.initializers", "class_name": "GlorotUniform", "config": {"seed": null}, "registered_name": null}, "bias_initializer": {"module": "keras.initializers", "class_name": "Zeros", "config": {}, "registered_name": null}, "kernel_regularizer": null, "bias_regularizer": null, "activity_regularizer": null, "kernel_constraint": null, "bias_constraint": null}, "registered_name": null, "build_config": {"input_shape": [null, 12, 12, 768]}, "name": "conv2d_242", "inbound_nodes": [[["mixed5", 0, 0, {}]]]}, {"module": "keras.layers", "class_name": "BatchNormalization", "config": {"name": "batch_normalization_242", "trainable": false, "dtype": "float32", "axis": [3], "momentum": 0.99, "epsilon": 0.001, "center": true, "scale": false, "beta_initializer": {"module": "keras.initializers", "class_name": "Zeros", "config": {}, "registered_name": null}, "gamma_initializer": {"module": "keras.initializers", "class_name": "Ones", "config": {}, "registered_name": null}, "moving_mean_initializer": {"module": "keras.initializers", "class_name": "Zeros", "config": {}, "registered_name": null}, "moving_variance_initializer": {"module": "keras.initializers", "class_name": "Ones", "config": {}, "registered_name": null}, "beta_regularizer": null, "gamma_regularizer": null, "beta_constraint": null, "gamma_constraint": null}, "registered_name": null, "build_config": {"input_shape": [null, 12, 12, 160]}, "name": "batch_normalization_242", "inbound_nodes": [[["conv2d_242", 0, 0, {}]]]}, {"module": "keras.layers", "class_name": "Activation", "config": {"name": "activation_242", "trainable": false, "dtype": "float32", "activation": "relu"}, "registered_name": null, "build_config": {"input_shape": [null, 12, 12, 160]}, "name": "activation_242", "inbound_nodes": [[["batch_normalization_242", 0, 0, {}]]]}, {"module": "keras.layers", "class_name": "Conv2D", "config": {"name": "conv2d_243", "trainable": false, "dtype": "float32", "filters": 160, "kernel_size": [7, 1], "strides": [1, 1], "padding": "same", "data_format": "channels_last", "dilation_rate": [1, 1], "groups": 1, "activation": "linear", "use_bias": false, "kernel_initializer": {"module": "keras.initializers", "class_name": "GlorotUniform", "config": {"seed": null}, "registered_name": null}, "bias_initializer": {"module": "keras.initializers", "class_name": "Zeros", "config": {}, "registered_name": null}, "kernel_regularizer": null, "bias_regularizer": null, "activity_regularizer": null, "kernel_constraint": null, "bias_constraint": null}, "registered_name": null, "build_config": {"input_shape": [null, 12, 12, 160]}, "name": "conv2d_243", "inbound_nodes": [[["activation_242", 0, 0, {}]]]}, {"module": "keras.layers", "class_name": "BatchNormalization", "config": {"name": "batch_normalization_243", "trainable": false, "dtype": "float32", "axis": [3], "momentum": 0.99, "epsilon": 0.001, "center": true, "scale": false, "beta_initializer": {"module": "keras.initializers", "class_name": "Zeros", "config": {}, "registered_name": null}, "gamma_initializer": {"module": "keras.initializers", "class_name": "Ones", "config": {}, "registered_name": null}, "moving_mean_initializer": {"module": "keras.initializers", "class_name": "Zeros", "config": {}, "registered_name": null}, "moving_variance_initializer": {"module": "keras.initializers", "class_name": "Ones", "config": {}, "registered_name": null}, "beta_regularizer": null, "gamma_regularizer": null, "beta_constraint": null, "gamma_constraint": null}, "registered_name": null, "build_config": {"input_shape": [null, 12, 12, 160]}, "name": "batch_normalization_243", "inbound_nodes": [[["conv2d_243", 0, 0, {}]]]}, {"module": "keras.layers", "class_name": "Activation", "config": {"name": "activation_243", "trainable": false, "dtype": "float32", "activation": "relu"}, "registered_name": null, "build_config": {"input_shape": [null, 12, 12, 160]}, "name": "activation_243", "inbound_nodes": [[["batch_normalization_243", 0, 0, {}]]]}, {"module": "keras.layers", "class_name": "Conv2D", "config": {"name": "conv2d_239", "trainable": false, "dtype": "float32", "filters": 160, "kernel_size": [1, 1], "strides": [1, 1], "padding": "same", "data_format": "channels_last", "dilation_rate": [1, 1], "groups": 1, "activation": "linear", "use_bias": false, "kernel_initializer": {"module": "keras.initializers", "class_name": "GlorotUniform", "config": {"seed": null}, "registered_name": null}, "bias_initializer": {"module": "keras.initializers", "class_name": "Zeros", "config": {}, "registered_name": null}, "kernel_regularizer": null, "bias_regularizer": null, "activity_regularizer": null, "kernel_constraint": null, "bias_constraint": null}, "registered_name": null, "build_config": {"input_shape": [null, 12, 12, 768]}, "name": "conv2d_239", "inbound_nodes": [[["mixed5", 0, 0, {}]]]}, {"module": "keras.layers", "class_name": "Conv2D", "config": {"name": "conv2d_244", "trainable": false, "dtype": "float32", "filters": 160, "kernel_size": [1, 7], "strides": [1, 1], "padding": "same", "data_format": "channels_last", "dilation_rate": [1, 1], "groups": 1, "activation": "linear", "use_bias": false, "kernel_initializer": {"module": "keras.initializers", "class_name": "GlorotUniform", "config": {"seed": null}, "registered_name": null}, "bias_initializer": {"module": "keras.initializers", "class_name": "Zeros", "config": {}, "registered_name": null}, "kernel_regularizer": null, "bias_regularizer": null, "activity_regularizer": null, "kernel_constraint": null, "bias_constraint": null}, "registered_name": null, "build_config": {"input_shape": [null, 12, 12, 160]}, "name": "conv2d_244", "inbound_nodes": [[["activation_243", 0, 0, {}]]]}, {"module": "keras.layers", "class_name": "BatchNormalization", "config": {"name": "batch_normalization_239", "trainable": false, "dtype": "float32", "axis": [3], "momentum": 0.99, "epsilon": 0.001, "center": true, "scale": false, "beta_initializer": {"module": "keras.initializers", "class_name": "Zeros", "config": {}, "registered_name": null}, "gamma_initializer": {"module": "keras.initializers", "class_name": "Ones", "config": {}, "registered_name": null}, "moving_mean_initializer": {"module": "keras.initializers", "class_name": "Zeros", "config": {}, "registered_name": null}, "moving_variance_initializer": {"module": "keras.initializers", "class_name": "Ones", "config": {}, "registered_name": null}, "beta_regularizer": null, "gamma_regularizer": null, "beta_constraint": null, "gamma_constraint": null}, "registered_name": null, "build_config": {"input_shape": [null, 12, 12, 160]}, "name": "batch_normalization_239", "inbound_nodes": [[["conv2d_239", 0, 0, {}]]]}, {"module": "keras.layers", "class_name": "BatchNormalization", "config": {"name": "batch_normalization_244", "trainable": false, "dtype": "float32", "axis": [3], "momentum": 0.99, "epsilon": 0.001, "center": true, "scale": false, "beta_initializer": {"module": "keras.initializers", "class_name": "Zeros", "config": {}, "registered_name": null}, "gamma_initializer": {"module": "keras.initializers", "class_name": "Ones", "config": {}, "registered_name": null}, "moving_mean_initializer": {"module": "keras.initializers", "class_name": "Zeros", "config": {}, "registered_name": null}, "moving_variance_initializer": {"module": "keras.initializers", "class_name": "Ones", "config": {}, "registered_name": null}, "beta_regularizer": null, "gamma_regularizer": null, "beta_constraint": null, "gamma_constraint": null}, "registered_name": null, "build_config": {"input_shape": [null, 12, 12, 160]}, "name": "batch_normalization_244", "inbound_nodes": [[["conv2d_244", 0, 0, {}]]]}, {"module": "keras.layers", "class_name": "Activation", "config": {"name": "activation_239", "trainable": false, "dtype": "float32", "activation": "relu"}, "registered_name": null, "build_config": {"input_shape": [null, 12, 12, 160]}, "name": "activation_239", "inbound_nodes": [[["batch_normalization_239", 0, 0, {}]]]}, {"module": "keras.layers", "class_name": "Activation", "config": {"name": "activation_244", "trainable": false, "dtype": "float32", "activation": "relu"}, "registered_name": null, "build_config": {"input_shape": [null, 12, 12, 160]}, "name": "activation_244", "inbound_nodes": [[["batch_normalization_244", 0, 0, {}]]]}, {"module": "keras.layers", "class_name": "Conv2D", "config": {"name": "conv2d_240", "trainable": false, "dtype": "float32", "filters": 160, "kernel_size": [1, 7], "strides": [1, 1], "padding": "same", "data_format": "channels_last", "dilation_rate": [1, 1], "groups": 1, "activation": "linear", "use_bias": false, "kernel_initializer": {"module": "keras.initializers", "class_name": "GlorotUniform", "config": {"seed": null}, "registered_name": null}, "bias_initializer": {"module": "keras.initializers", "class_name": "Zeros", "config": {}, "registered_name": null}, "kernel_regularizer": null, "bias_regularizer": null, "activity_regularizer": null, "kernel_constraint": null, "bias_constraint": null}, "registered_name": null, "build_config": {"input_shape": [null, 12, 12, 160]}, "name": "conv2d_240", "inbound_nodes": [[["activation_239", 0, 0, {}]]]}, {"module": "keras.layers", "class_name": "Conv2D", "config": {"name": "conv2d_245", "trainable": false, "dtype": "float32", "filters": 160, "kernel_size": [7, 1], "strides": [1, 1], "padding": "same", "data_format": "channels_last", "dilation_rate": [1, 1], "groups": 1, "activation": "linear", "use_bias": false, "kernel_initializer": {"module": "keras.initializers", "class_name": "GlorotUniform", "config": {"seed": null}, "registered_name": null}, "bias_initializer": {"module": "keras.initializers", "class_name": "Zeros", "config": {}, "registered_name": null}, "kernel_regularizer": null, "bias_regularizer": null, "activity_regularizer": null, "kernel_constraint": null, "bias_constraint": null}, "registered_name": null, "build_config": {"input_shape": [null, 12, 12, 160]}, "name": "conv2d_245", "inbound_nodes": [[["activation_244", 0, 0, {}]]]}, {"module": "keras.layers", "class_name": "BatchNormalization", "config": {"name": "batch_normalization_240", "trainable": false, "dtype": "float32", "axis": [3], "momentum": 0.99, "epsilon": 0.001, "center": true, "scale": false, "beta_initializer": {"module": "keras.initializers", "class_name": "Zeros", "config": {}, "registered_name": null}, "gamma_initializer": {"module": "keras.initializers", "class_name": "Ones", "config": {}, "registered_name": null}, "moving_mean_initializer": {"module": "keras.initializers", "class_name": "Zeros", "config": {}, "registered_name": null}, "moving_variance_initializer": {"module": "keras.initializers", "class_name": "Ones", "config": {}, "registered_name": null}, "beta_regularizer": null, "gamma_regularizer": null, "beta_constraint": null, "gamma_constraint": null}, "registered_name": null, "build_config": {"input_shape": [null, 12, 12, 160]}, "name": "batch_normalization_240", "inbound_nodes": [[["conv2d_240", 0, 0, {}]]]}, {"module": "keras.layers", "class_name": "BatchNormalization", "config": {"name": "batch_normalization_245", "trainable": false, "dtype": "float32", "axis": [3], "momentum": 0.99, "epsilon": 0.001, "center": true, "scale": false, "beta_initializer": {"module": "keras.initializers", "class_name": "Zeros", "config": {}, "registered_name": null}, "gamma_initializer": {"module": "keras.initializers", "class_name": "Ones", "config": {}, "registered_name": null}, "moving_mean_initializer": {"module": "keras.initializers", "class_name": "Zeros", "config": {}, "registered_name": null}, "moving_variance_initializer": {"module": "keras.initializers", "class_name": "Ones", "config": {}, "registered_name": null}, "beta_regularizer": null, "gamma_regularizer": null, "beta_constraint": null, "gamma_constraint": null}, "registered_name": null, "build_config": {"input_shape": [null, 12, 12, 160]}, "name": "batch_normalization_245", "inbound_nodes": [[["conv2d_245", 0, 0, {}]]]}, {"module": "keras.layers", "class_name": "Activation", "config": {"name": "activation_240", "trainable": false, "dtype": "float32", "activation": "relu"}, "registered_name": null, "build_config": {"input_shape": [null, 12, 12, 160]}, "name": "activation_240", "inbound_nodes": [[["batch_normalization_240", 0, 0, {}]]]}, {"module": "keras.layers", "class_name": "Activation", "config": {"name": "activation_245", "trainable": false, "dtype": "float32", "activation": "relu"}, "registered_name": null, "build_config": {"input_shape": [null, 12, 12, 160]}, "name": "activation_245", "inbound_nodes": [[["batch_normalization_245", 0, 0, {}]]]}, {"module": "keras.layers", "class_name": "AveragePooling2D", "config": {"name": "average_pooling2d_23", "trainable": false, "dtype": "float32", "pool_size": [3, 3], "padding": "same", "strides": [1, 1], "data_format": "channels_last"}, "registered_name": null, "build_config": {"input_shape": [null, 12, 12, 768]}, "name": "average_pooling2d_23", "inbound_nodes": [[["mixed5", 0, 0, {}]]]}, {"module": "keras.layers", "class_name": "Conv2D", "config": {"name": "conv2d_238", "trainable": false, "dtype": "float32", "filters": 192, "kernel_size": [1, 1], "strides": [1, 1], "padding": "same", "data_format": "channels_last", "dilation_rate": [1, 1], "groups": 1, "activation": "linear", "use_bias": false, "kernel_initializer": {"module": "keras.initializers", "class_name": "GlorotUniform", "config": {"seed": null}, "registered_name": null}, "bias_initializer": {"module": "keras.initializers", "class_name": "Zeros", "config": {}, "registered_name": null}, "kernel_regularizer": null, "bias_regularizer": null, "activity_regularizer": null, "kernel_constraint": null, "bias_constraint": null}, "registered_name": null, "build_config": {"input_shape": [null, 12, 12, 768]}, "name": "conv2d_238", "inbound_nodes": [[["mixed5", 0, 0, {}]]]}, {"module": "keras.layers", "class_name": "Conv2D", "config": {"name": "conv2d_241", "trainable": false, "dtype": "float32", "filters": 192, "kernel_size": [7, 1], "strides": [1, 1], "padding": "same", "data_format": "channels_last", "dilation_rate": [1, 1], "groups": 1, "activation": "linear", "use_bias": false, "kernel_initializer": {"module": "keras.initializers", "class_name": "GlorotUniform", "config": {"seed": null}, "registered_name": null}, "bias_initializer": {"module": "keras.initializers", "class_name": "Zeros", "config": {}, "registered_name": null}, "kernel_regularizer": null, "bias_regularizer": null, "activity_regularizer": null, "kernel_constraint": null, "bias_constraint": null}, "registered_name": null, "build_config": {"input_shape": [null, 12, 12, 160]}, "name": "conv2d_241", "inbound_nodes": [[["activation_240", 0, 0, {}]]]}, {"module": "keras.layers", "class_name": "Conv2D", "config": {"name": "conv2d_246", "trainable": false, "dtype": "float32", "filters": 192, "kernel_size": [1, 7], "strides": [1, 1], "padding": "same", "data_format": "channels_last", "dilation_rate": [1, 1], "groups": 1, "activation": "linear", "use_bias": false, "kernel_initializer": {"module": "keras.initializers", "class_name": "GlorotUniform", "config": {"seed": null}, "registered_name": null}, "bias_initializer": {"module": "keras.initializers", "class_name": "Zeros", "config": {}, "registered_name": null}, "kernel_regularizer": null, "bias_regularizer": null, "activity_regularizer": null, "kernel_constraint": null, "bias_constraint": null}, "registered_name": null, "build_config": {"input_shape": [null, 12, 12, 160]}, "name": "conv2d_246", "inbound_nodes": [[["activation_245", 0, 0, {}]]]}, {"module": "keras.layers", "class_name": "Conv2D", "config": {"name": "conv2d_247", "trainable": false, "dtype": "float32", "filters": 192, "kernel_size": [1, 1], "strides": [1, 1], "padding": "same", "data_format": "channels_last", "dilation_rate": [1, 1], "groups": 1, "activation": "linear", "use_bias": false, "kernel_initializer": {"module": "keras.initializers", "class_name": "GlorotUniform", "config": {"seed": null}, "registered_name": null}, "bias_initializer": {"module": "keras.initializers", "class_name": "Zeros", "config": {}, "registered_name": null}, "kernel_regularizer": null, "bias_regularizer": null, "activity_regularizer": null, "kernel_constraint": null, "bias_constraint": null}, "registered_name": null, "build_config": {"input_shape": [null, 12, 12, 768]}, "name": "conv2d_247", "inbound_nodes": [[["average_pooling2d_23", 0, 0, {}]]]}, {"module": "keras.layers", "class_name": "BatchNormalization", "config": {"name": "batch_normalization_238", "trainable": false, "dtype": "float32", "axis": [3], "momentum": 0.99, "epsilon": 0.001, "center": true, "scale": false, "beta_initializer": {"module": "keras.initializers", "class_name": "Zeros", "config": {}, "registered_name": null}, "gamma_initializer": {"module": "keras.initializers", "class_name": "Ones", "config": {}, "registered_name": null}, "moving_mean_initializer": {"module": "keras.initializers", "class_name": "Zeros", "config": {}, "registered_name": null}, "moving_variance_initializer": {"module": "keras.initializers", "class_name": "Ones", "config": {}, "registered_name": null}, "beta_regularizer": null, "gamma_regularizer": null, "beta_constraint": null, "gamma_constraint": null}, "registered_name": null, "build_config": {"input_shape": [null, 12, 12, 192]}, "name": "batch_normalization_238", "inbound_nodes": [[["conv2d_238", 0, 0, {}]]]}, {"module": "keras.layers", "class_name": "BatchNormalization", "config": {"name": "batch_normalization_241", "trainable": false, "dtype": "float32", "axis": [3], "momentum": 0.99, "epsilon": 0.001, "center": true, "scale": false, "beta_initializer": {"module": "keras.initializers", "class_name": "Zeros", "config": {}, "registered_name": null}, "gamma_initializer": {"module": "keras.initializers", "class_name": "Ones", "config": {}, "registered_name": null}, "moving_mean_initializer": {"module": "keras.initializers", "class_name": "Zeros", "config": {}, "registered_name": null}, "moving_variance_initializer": {"module": "keras.initializers", "class_name": "Ones", "config": {}, "registered_name": null}, "beta_regularizer": null, "gamma_regularizer": null, "beta_constraint": null, "gamma_constraint": null}, "registered_name": null, "build_config": {"input_shape": [null, 12, 12, 192]}, "name": "batch_normalization_241", "inbound_nodes": [[["conv2d_241", 0, 0, {}]]]}, {"module": "keras.layers", "class_name": "BatchNormalization", "config": {"name": "batch_normalization_246", "trainable": false, "dtype": "float32", "axis": [3], "momentum": 0.99, "epsilon": 0.001, "center": true, "scale": false, "beta_initializer": {"module": "keras.initializers", "class_name": "Zeros", "config": {}, "registered_name": null}, "gamma_initializer": {"module": "keras.initializers", "class_name": "Ones", "config": {}, "registered_name": null}, "moving_mean_initializer": {"module": "keras.initializers", "class_name": "Zeros", "config": {}, "registered_name": null}, "moving_variance_initializer": {"module": "keras.initializers", "class_name": "Ones", "config": {}, "registered_name": null}, "beta_regularizer": null, "gamma_regularizer": null, "beta_constraint": null, "gamma_constraint": null}, "registered_name": null, "build_config": {"input_shape": [null, 12, 12, 192]}, "name": "batch_normalization_246", "inbound_nodes": [[["conv2d_246", 0, 0, {}]]]}, {"module": "keras.layers", "class_name": "BatchNormalization", "config": {"name": "batch_normalization_247", "trainable": false, "dtype": "float32", "axis": [3], "momentum": 0.99, "epsilon": 0.001, "center": true, "scale": false, "beta_initializer": {"module": "keras.initializers", "class_name": "Zeros", "config": {}, "registered_name": null}, "gamma_initializer": {"module": "keras.initializers", "class_name": "Ones", "config": {}, "registered_name": null}, "moving_mean_initializer": {"module": "keras.initializers", "class_name": "Zeros", "config": {}, "registered_name": null}, "moving_variance_initializer": {"module": "keras.initializers", "class_name": "Ones", "config": {}, "registered_name": null}, "beta_regularizer": null, "gamma_regularizer": null, "beta_constraint": null, "gamma_constraint": null}, "registered_name": null, "build_config": {"input_shape": [null, 12, 12, 192]}, "name": "batch_normalization_247", "inbound_nodes": [[["conv2d_247", 0, 0, {}]]]}, {"module": "keras.layers", "class_name": "Activation", "config": {"name": "activation_238", "trainable": false, "dtype": "float32", "activation": "relu"}, "registered_name": null, "build_config": {"input_shape": [null, 12, 12, 192]}, "name": "activation_238", "inbound_nodes": [[["batch_normalization_238", 0, 0, {}]]]}, {"module": "keras.layers", "class_name": "Activation", "config": {"name": "activation_241", "trainable": false, "dtype": "float32", "activation": "relu"}, "registered_name": null, "build_config": {"input_shape": [null, 12, 12, 192]}, "name": "activation_241", "inbound_nodes": [[["batch_normalization_241", 0, 0, {}]]]}, {"module": "keras.layers", "class_name": "Activation", "config": {"name": "activation_246", "trainable": false, "dtype": "float32", "activation": "relu"}, "registered_name": null, "build_config": {"input_shape": [null, 12, 12, 192]}, "name": "activation_246", "inbound_nodes": [[["batch_normalization_246", 0, 0, {}]]]}, {"module": "keras.layers", "class_name": "Activation", "config": {"name": "activation_247", "trainable": false, "dtype": "float32", "activation": "relu"}, "registered_name": null, "build_config": {"input_shape": [null, 12, 12, 192]}, "name": "activation_247", "inbound_nodes": [[["batch_normalization_247", 0, 0, {}]]]}, {"module": "keras.layers", "class_name": "Concatenate", "config": {"name": "mixed6", "trainable": false, "dtype": "float32", "axis": 3}, "registered_name": null, "build_config": {"input_shape": [[null, 12, 12, 192], [null, 12, 12, 192], [null, 12, 12, 192], [null, 12, 12, 192]]}, "name": "mixed6", "inbound_nodes": [[["activation_238", 0, 0, {}], ["activation_241", 0, 0, {}], ["activation_246", 0, 0, {}], ["activation_247", 0, 0, {}]]]}, {"module": "keras.layers", "class_name": "Conv2D", "config": {"name": "conv2d_252", "trainable": false, "dtype": "float32", "filters": 192, "kernel_size": [1, 1], "strides": [1, 1], "padding": "same", "data_format": "channels_last", "dilation_rate": [1, 1], "groups": 1, "activation": "linear", "use_bias": false, "kernel_initializer": {"module": "keras.initializers", "class_name": "GlorotUniform", "config": {"seed": null}, "registered_name": null}, "bias_initializer": {"module": "keras.initializers", "class_name": "Zeros", "config": {}, "registered_name": null}, "kernel_regularizer": null, "bias_regularizer": null, "activity_regularizer": null, "kernel_constraint": null, "bias_constraint": null}, "registered_name": null, "build_config": {"input_shape": [null, 12, 12, 768]}, "name": "conv2d_252", "inbound_nodes": [[["mixed6", 0, 0, {}]]]}, {"module": "keras.layers", "class_name": "BatchNormalization", "config": {"name": "batch_normalization_252", "trainable": false, "dtype": "float32", "axis": [3], "momentum": 0.99, "epsilon": 0.001, "center": true, "scale": false, "beta_initializer": {"module": "keras.initializers", "class_name": "Zeros", "config": {}, "registered_name": null}, "gamma_initializer": {"module": "keras.initializers", "class_name": "Ones", "config": {}, "registered_name": null}, "moving_mean_initializer": {"module": "keras.initializers", "class_name": "Zeros", "config": {}, "registered_name": null}, "moving_variance_initializer": {"module": "keras.initializers", "class_name": "Ones", "config": {}, "registered_name": null}, "beta_regularizer": null, "gamma_regularizer": null, "beta_constraint": null, "gamma_constraint": null}, "registered_name": null, "build_config": {"input_shape": [null, 12, 12, 192]}, "name": "batch_normalization_252", "inbound_nodes": [[["conv2d_252", 0, 0, {}]]]}, {"module": "keras.layers", "class_name": "Activation", "config": {"name": "activation_252", "trainable": false, "dtype": "float32", "activation": "relu"}, "registered_name": null, "build_config": {"input_shape": [null, 12, 12, 192]}, "name": "activation_252", "inbound_nodes": [[["batch_normalization_252", 0, 0, {}]]]}, {"module": "keras.layers", "class_name": "Conv2D", "config": {"name": "conv2d_253", "trainable": false, "dtype": "float32", "filters": 192, "kernel_size": [7, 1], "strides": [1, 1], "padding": "same", "data_format": "channels_last", "dilation_rate": [1, 1], "groups": 1, "activation": "linear", "use_bias": false, "kernel_initializer": {"module": "keras.initializers", "class_name": "GlorotUniform", "config": {"seed": null}, "registered_name": null}, "bias_initializer": {"module": "keras.initializers", "class_name": "Zeros", "config": {}, "registered_name": null}, "kernel_regularizer": null, "bias_regularizer": null, "activity_regularizer": null, "kernel_constraint": null, "bias_constraint": null}, "registered_name": null, "build_config": {"input_shape": [null, 12, 12, 192]}, "name": "conv2d_253", "inbound_nodes": [[["activation_252", 0, 0, {}]]]}, {"module": "keras.layers", "class_name": "BatchNormalization", "config": {"name": "batch_normalization_253", "trainable": false, "dtype": "float32", "axis": [3], "momentum": 0.99, "epsilon": 0.001, "center": true, "scale": false, "beta_initializer": {"module": "keras.initializers", "class_name": "Zeros", "config": {}, "registered_name": null}, "gamma_initializer": {"module": "keras.initializers", "class_name": "Ones", "config": {}, "registered_name": null}, "moving_mean_initializer": {"module": "keras.initializers", "class_name": "Zeros", "config": {}, "registered_name": null}, "moving_variance_initializer": {"module": "keras.initializers", "class_name": "Ones", "config": {}, "registered_name": null}, "beta_regularizer": null, "gamma_regularizer": null, "beta_constraint": null, "gamma_constraint": null}, "registered_name": null, "build_config": {"input_shape": [null, 12, 12, 192]}, "name": "batch_normalization_253", "inbound_nodes": [[["conv2d_253", 0, 0, {}]]]}, {"module": "keras.layers", "class_name": "Activation", "config": {"name": "activation_253", "trainable": false, "dtype": "float32", "activation": "relu"}, "registered_name": null, "build_config": {"input_shape": [null, 12, 12, 192]}, "name": "activation_253", "inbound_nodes": [[["batch_normalization_253", 0, 0, {}]]]}, {"module": "keras.layers", "class_name": "Conv2D", "config": {"name": "conv2d_249", "trainable": false, "dtype": "float32", "filters": 192, "kernel_size": [1, 1], "strides": [1, 1], "padding": "same", "data_format": "channels_last", "dilation_rate": [1, 1], "groups": 1, "activation": "linear", "use_bias": false, "kernel_initializer": {"module": "keras.initializers", "class_name": "GlorotUniform", "config": {"seed": null}, "registered_name": null}, "bias_initializer": {"module": "keras.initializers", "class_name": "Zeros", "config": {}, "registered_name": null}, "kernel_regularizer": null, "bias_regularizer": null, "activity_regularizer": null, "kernel_constraint": null, "bias_constraint": null}, "registered_name": null, "build_config": {"input_shape": [null, 12, 12, 768]}, "name": "conv2d_249", "inbound_nodes": [[["mixed6", 0, 0, {}]]]}, {"module": "keras.layers", "class_name": "Conv2D", "config": {"name": "conv2d_254", "trainable": false, "dtype": "float32", "filters": 192, "kernel_size": [1, 7], "strides": [1, 1], "padding": "same", "data_format": "channels_last", "dilation_rate": [1, 1], "groups": 1, "activation": "linear", "use_bias": false, "kernel_initializer": {"module": "keras.initializers", "class_name": "GlorotUniform", "config": {"seed": null}, "registered_name": null}, "bias_initializer": {"module": "keras.initializers", "class_name": "Zeros", "config": {}, "registered_name": null}, "kernel_regularizer": null, "bias_regularizer": null, "activity_regularizer": null, "kernel_constraint": null, "bias_constraint": null}, "registered_name": null, "build_config": {"input_shape": [null, 12, 12, 192]}, "name": "conv2d_254", "inbound_nodes": [[["activation_253", 0, 0, {}]]]}, {"module": "keras.layers", "class_name": "BatchNormalization", "config": {"name": "batch_normalization_249", "trainable": false, "dtype": "float32", "axis": [3], "momentum": 0.99, "epsilon": 0.001, "center": true, "scale": false, "beta_initializer": {"module": "keras.initializers", "class_name": "Zeros", "config": {}, "registered_name": null}, "gamma_initializer": {"module": "keras.initializers", "class_name": "Ones", "config": {}, "registered_name": null}, "moving_mean_initializer": {"module": "keras.initializers", "class_name": "Zeros", "config": {}, "registered_name": null}, "moving_variance_initializer": {"module": "keras.initializers", "class_name": "Ones", "config": {}, "registered_name": null}, "beta_regularizer": null, "gamma_regularizer": null, "beta_constraint": null, "gamma_constraint": null}, "registered_name": null, "build_config": {"input_shape": [null, 12, 12, 192]}, "name": "batch_normalization_249", "inbound_nodes": [[["conv2d_249", 0, 0, {}]]]}, {"module": "keras.layers", "class_name": "BatchNormalization", "config": {"name": "batch_normalization_254", "trainable": false, "dtype": "float32", "axis": [3], "momentum": 0.99, "epsilon": 0.001, "center": true, "scale": false, "beta_initializer": {"module": "keras.initializers", "class_name": "Zeros", "config": {}, "registered_name": null}, "gamma_initializer": {"module": "keras.initializers", "class_name": "Ones", "config": {}, "registered_name": null}, "moving_mean_initializer": {"module": "keras.initializers", "class_name": "Zeros", "config": {}, "registered_name": null}, "moving_variance_initializer": {"module": "keras.initializers", "class_name": "Ones", "config": {}, "registered_name": null}, "beta_regularizer": null, "gamma_regularizer": null, "beta_constraint": null, "gamma_constraint": null}, "registered_name": null, "build_config": {"input_shape": [null, 12, 12, 192]}, "name": "batch_normalization_254", "inbound_nodes": [[["conv2d_254", 0, 0, {}]]]}, {"module": "keras.layers", "class_name": "Activation", "config": {"name": "activation_249", "trainable": false, "dtype": "float32", "activation": "relu"}, "registered_name": null, "build_config": {"input_shape": [null, 12, 12, 192]}, "name": "activation_249", "inbound_nodes": [[["batch_normalization_249", 0, 0, {}]]]}, {"module": "keras.layers", "class_name": "Activation", "config": {"name": "activation_254", "trainable": false, "dtype": "float32", "activation": "relu"}, "registered_name": null, "build_config": {"input_shape": [null, 12, 12, 192]}, "name": "activation_254", "inbound_nodes": [[["batch_normalization_254", 0, 0, {}]]]}, {"module": "keras.layers", "class_name": "Conv2D", "config": {"name": "conv2d_250", "trainable": false, "dtype": "float32", "filters": 192, "kernel_size": [1, 7], "strides": [1, 1], "padding": "same", "data_format": "channels_last", "dilation_rate": [1, 1], "groups": 1, "activation": "linear", "use_bias": false, "kernel_initializer": {"module": "keras.initializers", "class_name": "GlorotUniform", "config": {"seed": null}, "registered_name": null}, "bias_initializer": {"module": "keras.initializers", "class_name": "Zeros", "config": {}, "registered_name": null}, "kernel_regularizer": null, "bias_regularizer": null, "activity_regularizer": null, "kernel_constraint": null, "bias_constraint": null}, "registered_name": null, "build_config": {"input_shape": [null, 12, 12, 192]}, "name": "conv2d_250", "inbound_nodes": [[["activation_249", 0, 0, {}]]]}, {"module": "keras.layers", "class_name": "Conv2D", "config": {"name": "conv2d_255", "trainable": false, "dtype": "float32", "filters": 192, "kernel_size": [7, 1], "strides": [1, 1], "padding": "same", "data_format": "channels_last", "dilation_rate": [1, 1], "groups": 1, "activation": "linear", "use_bias": false, "kernel_initializer": {"module": "keras.initializers", "class_name": "GlorotUniform", "config": {"seed": null}, "registered_name": null}, "bias_initializer": {"module": "keras.initializers", "class_name": "Zeros", "config": {}, "registered_name": null}, "kernel_regularizer": null, "bias_regularizer": null, "activity_regularizer": null, "kernel_constraint": null, "bias_constraint": null}, "registered_name": null, "build_config": {"input_shape": [null, 12, 12, 192]}, "name": "conv2d_255", "inbound_nodes": [[["activation_254", 0, 0, {}]]]}, {"module": "keras.layers", "class_name": "BatchNormalization", "config": {"name": "batch_normalization_250", "trainable": false, "dtype": "float32", "axis": [3], "momentum": 0.99, "epsilon": 0.001, "center": true, "scale": false, "beta_initializer": {"module": "keras.initializers", "class_name": "Zeros", "config": {}, "registered_name": null}, "gamma_initializer": {"module": "keras.initializers", "class_name": "Ones", "config": {}, "registered_name": null}, "moving_mean_initializer": {"module": "keras.initializers", "class_name": "Zeros", "config": {}, "registered_name": null}, "moving_variance_initializer": {"module": "keras.initializers", "class_name": "Ones", "config": {}, "registered_name": null}, "beta_regularizer": null, "gamma_regularizer": null, "beta_constraint": null, "gamma_constraint": null}, "registered_name": null, "build_config": {"input_shape": [null, 12, 12, 192]}, "name": "batch_normalization_250", "inbound_nodes": [[["conv2d_250", 0, 0, {}]]]}, {"module": "keras.layers", "class_name": "BatchNormalization", "config": {"name": "batch_normalization_255", "trainable": false, "dtype": "float32", "axis": [3], "momentum": 0.99, "epsilon": 0.001, "center": true, "scale": false, "beta_initializer": {"module": "keras.initializers", "class_name": "Zeros", "config": {}, "registered_name": null}, "gamma_initializer": {"module": "keras.initializers", "class_name": "Ones", "config": {}, "registered_name": null}, "moving_mean_initializer": {"module": "keras.initializers", "class_name": "Zeros", "config": {}, "registered_name": null}, "moving_variance_initializer": {"module": "keras.initializers", "class_name": "Ones", "config": {}, "registered_name": null}, "beta_regularizer": null, "gamma_regularizer": null, "beta_constraint": null, "gamma_constraint": null}, "registered_name": null, "build_config": {"input_shape": [null, 12, 12, 192]}, "name": "batch_normalization_255", "inbound_nodes": [[["conv2d_255", 0, 0, {}]]]}, {"module": "keras.layers", "class_name": "Activation", "config": {"name": "activation_250", "trainable": false, "dtype": "float32", "activation": "relu"}, "registered_name": null, "build_config": {"input_shape": [null, 12, 12, 192]}, "name": "activation_250", "inbound_nodes": [[["batch_normalization_250", 0, 0, {}]]]}, {"module": "keras.layers", "class_name": "Activation", "config": {"name": "activation_255", "trainable": false, "dtype": "float32", "activation": "relu"}, "registered_name": null, "build_config": {"input_shape": [null, 12, 12, 192]}, "name": "activation_255", "inbound_nodes": [[["batch_normalization_255", 0, 0, {}]]]}, {"module": "keras.layers", "class_name": "AveragePooling2D", "config": {"name": "average_pooling2d_24", "trainable": false, "dtype": "float32", "pool_size": [3, 3], "padding": "same", "strides": [1, 1], "data_format": "channels_last"}, "registered_name": null, "build_config": {"input_shape": [null, 12, 12, 768]}, "name": "average_pooling2d_24", "inbound_nodes": [[["mixed6", 0, 0, {}]]]}, {"module": "keras.layers", "class_name": "Conv2D", "config": {"name": "conv2d_248", "trainable": false, "dtype": "float32", "filte…
mma_regularizer": null, "beta_constraint": null, "gamma_constraint": null}, "registered_name": null, "build_config": {"input_shape": [null, 5, 5, 384]}, "name": "batch_normalization_274", "inbound_nodes": [[["conv2d_274", 0, 0, {}]]]}, {"module": "keras.layers", "class_name": "BatchNormalization", "config": {"name": "batch_normalization_278", "trainable": false, "dtype": "float32", "axis": [3], "momentum": 0.99, "epsilon": 0.001, "center": true, "scale": false, "beta_initializer": {"module": "keras.initializers", "class_name": "Zeros", "config": {}, "registered_name": null}, "gamma_initializer": {"module": "keras.initializers", "class_name": "Ones", "config": {}, "registered_name": null}, "moving_mean_initializer": {"module": "keras.initializers", "class_name": "Zeros", "config": {}, "registered_name": null}, "moving_variance_initializer": {"module": "keras.initializers", "class_name": "Ones", "config": {}, "registered_name": null}, "beta_regularizer": null, "gamma_regularizer": null, "beta_constraint": null, "gamma_constraint": null}, "registered_name": null, "build_config": {"input_shape": [null, 5, 5, 384]}, "name": "batch_normalization_278", "inbound_nodes": [[["conv2d_278", 0, 0, {}]]]}, {"module": "keras.layers", "class_name": "Activation", "config": {"name": "activation_274", "trainable": false, "dtype": "float32", "activation": "relu"}, "registered_name": null, "build_config": {"input_shape": [null, 5, 5, 384]}, "name": "activation_274", "inbound_nodes": [[["batch_normalization_274", 0, 0, {}]]]}, {"module": "keras.layers", "class_name": "Activation", "config": {"name": "activation_278", "trainable": false, "dtype": "float32", "activation": "relu"}, "registered_name": null, "build_config": {"input_shape": [null, 5, 5, 384]}, "name": "activation_278", "inbound_nodes": [[["batch_normalization_278", 0, 0, {}]]]}, {"module": "keras.layers", "class_name": "Conv2D", "config": {"name": "conv2d_275", "trainable": false, "dtype": "float32", "filters": 384, "kernel_size": [1, 3], "strides": [1, 1], "padding": "same", "data_format": "channels_last", "dilation_rate": [1, 1], "groups": 1, "activation": "linear", "use_bias": false, "kernel_initializer": {"module": "keras.initializers", "class_name": "GlorotUniform", "config": {"seed": null}, "registered_name": null}, "bias_initializer": {"module": "keras.initializers", "class_name": "Zeros", "config": {}, "registered_name": null}, "kernel_regularizer": null, "bias_regularizer": null, "activity_regularizer": null, "kernel_constraint": null, "bias_constraint": null}, "registered_name": null, "build_config": {"input_shape": [null, 5, 5, 384]}, "name": "conv2d_275", "inbound_nodes": [[["activation_274", 0, 0, {}]]]}, {"module": "keras.layers", "class_name": "Conv2D", "config": {"name": "conv2d_276", "trainable": false, "dtype": "float32", "filters": 384, "kernel_size": [3, 1], "strides": [1, 1], "padding": "same", "data_format": "channels_last", "dilation_rate": [1, 1], "groups": 1, "activation": "linear", "use_bias": false, "kernel_initializer": {"module": "keras.initializers", "class_name": "GlorotUniform", "config": {"seed": null}, "registered_name": null}, "bias_initializer": {"module": "keras.initializers", "class_name": "Zeros", "config": {}, "registered_name": null}, "kernel_regularizer": null, "bias_regularizer": null, "activity_regularizer": null, "kernel_constraint": null, "bias_constraint": null}, "registered_name": null, "build_config": {"input_shape": [null, 5, 5, 384]}, "name": "conv2d_276", "inbound_nodes": [[["activation_274", 0, 0, {}]]]}, {"module": "keras.layers", "class_name": "Conv2D", "config": {"name": "conv2d_279", "trainable": false, "dtype": "float32", "filters": 384, "kernel_size": [1, 3], "strides": [1, 1], "padding": "same", "data_format": "channels_last", "dilation_rate": [1, 1], "groups": 1, "activation": "linear", "use_bias": false, "kernel_initializer": {"module": "keras.initializers", "class_name": "GlorotUniform", "config": {"seed": null}, "registered_name": null}, "bias_initializer": {"module": "keras.initializers", "class_name": "Zeros", "config": {}, "registered_name": null}, "kernel_regularizer": null, "bias_regularizer": null, "activity_regularizer": null, "kernel_constraint": null, "bias_constraint": null}, "registered_name": null, "build_config": {"input_shape": [null, 5, 5, 384]}, "name": "conv2d_279", "inbound_nodes": [[["activation_278", 0, 0, {}]]]}, {"module": "keras.layers", "class_name": "Conv2D", "config": {"name": "conv2d_280", "trainable": false, "dtype": "float32", "filters": 384, "kernel_size": [3, 1], "strides": [1, 1], "padding": "same", "data_format": "channels_last", "dilation_rate": [1, 1], "groups": 1, "activation": "linear", "use_bias": false, "kernel_initializer": {"module": "keras.initializers", "class_name": "GlorotUniform", "config": {"seed": null}, "registered_name": null}, "bias_initializer": {"module": "keras.initializers", "class_name": "Zeros", "config": {}, "registered_name": null}, "kernel_regularizer": null, "bias_regularizer": null, "activity_regularizer": null, "kernel_constraint": null, "bias_constraint": null}, "registered_name": null, "build_config": {"input_shape": [null, 5, 5, 384]}, "name": "conv2d_280", "inbound_nodes": [[["activation_278", 0, 0, {}]]]}, {"module": "keras.layers", "class_name": "AveragePooling2D", "config": {"name": "average_pooling2d_26", "trainable": false, "dtype": "float32", "pool_size": [3, 3], "padding": "same", "strides": [1, 1], "data_format": "channels_last"}, "registered_name": null, "build_config": {"input_shape": [null, 5, 5, 2048]}, "name": "average_pooling2d_26", "inbound_nodes": [[["mixed9", 0, 0, {}]]]}, {"module": "keras.layers", "class_name": "Conv2D", "config": {"name": "conv2d_273", "trainable": false, "dtype": "float32", "filters": 320, "kernel_size": [1, 1], "strides": [1, 1], "padding": "same", "data_format": "channels_last", "dilation_rate": [1, 1], "groups": 1, "activation": "linear", "use_bias": false, "kernel_initializer": {"module": "keras.initializers", "class_name": "GlorotUniform", "config": {"seed": null}, "registered_name": null}, "bias_initializer": {"module": "keras.initializers", "class_name": "Zeros", "config": {}, "registered_name": null}, "kernel_regularizer": null, "bias_regularizer": null, "activity_regularizer": null, "kernel_constraint": null, "bias_constraint": null}, "registered_name": null, "build_config": {"input_shape": [null, 5, 5, 2048]}, "name": "conv2d_273", "inbound_nodes": [[["mixed9", 0, 0, {}]]]}, {"module": "keras.layers", "class_name": "BatchNormalization", "config": {"name": "batch_normalization_275", "trainable": false, "dtype": "float32", "axis": [3], "momentum": 0.99, "epsilon": 0.001, "center": true, "scale": false, "beta_initializer": {"module": "keras.initializers", "class_name": "Zeros", "config": {}, "registered_name": null}, "gamma_initializer": {"module": "keras.initializers", "class_name": "Ones", "config": {}, "registered_name": null}, "moving_mean_initializer": {"module": "keras.initializers", "class_name": "Zeros", "config": {}, "registered_name": null}, "moving_variance_initializer": {"module": "keras.initializers", "class_name": "Ones", "config": {}, "registered_name": null}, "beta_regularizer": null, "gamma_regularizer": null, "beta_constraint": null, "gamma_constraint": null}, "registered_name": null, "build_config": {"input_shape": [null, 5, 5, 384]}, "name": "batch_normalization_275", "inbound_nodes": [[["conv2d_275", 0, 0, {}]]]}, {"module": "keras.layers", "class_name": "BatchNormalization", "config": {"name": "batch_normalization_276", "trainable": false, "dtype": "float32", "axis": [3], "momentum": 0.99, "epsilon": 0.001, "center": true, "scale": false, "beta_initializer": {"module": "keras.initializers", "class_name": "Zeros", "config": {}, "registered_name": null}, "gamma_initializer": {"module": "keras.initializers", "class_name": "Ones", "config": {}, "registered_name": null}, "moving_mean_initializer": {"module": "keras.initializers", "class_name": "Zeros", "config": {}, "registered_name": null}, "moving_variance_initializer": {"module": "keras.initializers", "class_name": "Ones", "config": {}, "registered_name": null}, "beta_regularizer": null, "gamma_regularizer": null, "beta_constraint": null, "gamma_constraint": null}, "registered_name": null, "build_config": {"input_shape": [null, 5, 5, 384]}, "name": "batch_normalization_276", "inbound_nodes": [[["conv2d_276", 0, 0, {}]]]}, {"module": "keras.layers", "class_name": "BatchNormalization", "config": {"name": "batch_normalization_279", "trainable": false, "dtype": "float32", "axis": [3], "momentum": 0.99, "epsilon": 0.001, "center": true, "scale": false, "beta_initializer": {"module": "keras.initializers", "class_name": "Zeros", "config": {}, "registered_name": null}, "gamma_initializer": {"module": "keras.initializers", "class_name": "Ones", "config": {}, "registered_name": null}, "moving_mean_initializer": {"module": "keras.initializers", "class_name": "Zeros", "config": {}, "registered_name": null}, "moving_variance_initializer": {"module": "keras.initializers", "class_name": "Ones", "config": {}, "registered_name": null}, "beta_regularizer": null, "gamma_regularizer": null, "beta_constraint": null, "gamma_constraint": null}, "registered_name": null, "build_config": {"input_shape": [null, 5, 5, 384]}, "name": "batch_normalization_279", "inbound_nodes": [[["conv2d_279", 0, 0, {}]]]}, {"module": "keras.layers", "class_name": "BatchNormalization", "config": {"name": "batch_normalization_280", "trainable": false, "dtype": "float32", "axis": [3], "momentum": 0.99, "epsilon": 0.001, "center": true, "scale": false, "beta_initializer": {"module": "keras.initializers", "class_name": "Zeros", "config": {}, "registered_name": null}, "gamma_initializer": {"module": "keras.initializers", "class_name": "Ones", "config": {}, "registered_name": null}, "moving_mean_initializer": {"module": "keras.initializers", "class_name": "Zeros", "config": {}, "registered_name": null}, "moving_variance_initializer": {"module": "keras.initializers", "class_name": "Ones", "config": {}, "registered_name": null}, "beta_regularizer": null, "gamma_regularizer": null, "beta_constraint": null, "gamma_constraint": null}, "registered_name": null, "build_config": {"input_shape": [null, 5, 5, 384]}, "name": "batch_normalization_280", "inbound_nodes": [[["conv2d_280", 0, 0, {}]]]}, {"module": "keras.layers", "class_name": "Conv2D", "config": {"name": "conv2d_281", "trainable": false, "dtype": "float32", "filters": 192, "kernel_size": [1, 1], "strides": [1, 1], "padding": "same", "data_format": "channels_last", "dilation_rate": [1, 1], "groups": 1, "activation": "linear", "use_bias": false, "kernel_initializer": {"module": "keras.initializers", "class_name": "GlorotUniform", "config": {"seed": null}, "registered_name": null}, "bias_initializer": {"module": "keras.initializers", "class_name": "Zeros", "config": {}, "registered_name": null}, "kernel_regularizer": null, "bias_regularizer": null, "activity_regularizer": null, "kernel_constraint": null, "bias_constraint": null}, "registered_name": null, "build_config": {"input_shape": [null, 5, 5, 2048]}, "name": "conv2d_281", "inbound_nodes": [[["average_pooling2d_26", 0, 0, {}]]]}, {"module": "keras.layers", "class_name": "BatchNormalization", "config": {"name": "batch_normalization_273", "trainable": false, "dtype": "float32", "axis": [3], "momentum": 0.99, "epsilon": 0.001, "center": true, "scale": false, "beta_initializer": {"module": "keras.initializers", "class_name": "Zeros", "config": {}, "registered_name": null}, "gamma_initializer": {"module": "keras.initializers", "class_name": "Ones", "config": {}, "registered_name": null}, "moving_mean_initializer": {"module": "keras.initializers", "class_name": "Zeros", "config": {}, "registered_name": null}, "moving_variance_initializer": {"module": "keras.initializers", "class_name": "Ones", "config": {}, "registered_name": null}, "beta_regularizer": null, "gamma_regularizer": null, "beta_constraint": null, "gamma_constraint": null}, "registered_name": null, "build_config": {"input_shape": [null, 5, 5, 320]}, "name": "batch_normalization_273", "inbound_nodes": [[["conv2d_273", 0, 0, {}]]]}, {"module": "keras.layers", "class_name": "Activation", "config": {"name": "activation_275", "trainable": false, "dtype": "float32", "activation": "relu"}, "registered_name": null, "build_config": {"input_shape": [null, 5, 5, 384]}, "name": "activation_275", "inbound_nodes": [[["batch_normalization_275", 0, 0, {}]]]}, {"module": "keras.layers", "class_name": "Activation", "config": {"name": "activation_276", "trainable": false, "dtype": "float32", "activation": "relu"}, "registered_name": null, "build_config": {"input_shape": [null, 5, 5, 384]}, "name": "activation_276", "inbound_nodes": [[["batch_normalization_276", 0, 0, {}]]]}, {"module": "keras.layers", "class_name": "Activation", "config": {"name": "activation_279", "trainable": false, "dtype": "float32", "activation": "relu"}, "registered_name": null, "build_config": {"input_shape": [null, 5, 5, 384]}, "name": "activation_279", "inbound_nodes": [[["batch_normalization_279", 0, 0, {}]]]}, {"module": "keras.layers", "class_name": "Activation", "config": {"name": "activation_280", "trainable": false, "dtype": "float32", "activation": "relu"}, "registered_name": null, "build_config": {"input_shape": [null, 5, 5, 384]}, "name": "activation_280", "inbound_nodes": [[["batch_normalization_280", 0, 0, {}]]]}, {"module": "keras.layers", "class_name": "BatchNormalization", "config": {"name": "batch_normalization_281", "trainable": false, "dtype": "float32", "axis": [3], "momentum": 0.99, "epsilon": 0.001, "center": true, "scale": false, "beta_initializer": {"module": "keras.initializers", "class_name": "Zeros", "config": {}, "registered_name": null}, "gamma_initializer": {"module": "keras.initializers", "class_name": "Ones", "config": {}, "registered_name": null}, "moving_mean_initializer": {"module": "keras.initializers", "class_name": "Zeros", "config": {}, "registered_name": null}, "moving_variance_initializer": {"module": "keras.initializers", "class_name": "Ones", "config": {}, "registered_name": null}, "beta_regularizer": null, "gamma_regularizer": null, "beta_constraint": null, "gamma_constraint": null}, "registered_name": null, "build_config": {"input_shape": [null, 5, 5, 192]}, "name": "batch_normalization_281", "inbound_nodes": [[["conv2d_281", 0, 0, {}]]]}, {"module": "keras.layers", "class_name": "Activation", "config": {"name": "activation_273", "trainable": false, "dtype": "float32", "activation": "relu"}, "registered_name": null, "build_config": {"input_shape": [null, 5, 5, 320]}, "name": "activation_273", "inbound_nodes": [[["batch_normalization_273", 0, 0, {}]]]}, {"module": "keras.layers", "class_name": "Concatenate", "config": {"name": "mixed9_1", "trainable": false, "dtype": "float32", "axis": 3}, "registered_name": null, "build_config": {"input_shape": [[null, 5, 5, 384], [null, 5, 5, 384]]}, "name": "mixed9_1", "inbound_nodes": [[["activation_275", 0, 0, {}], ["activation_276", 0, 0, {}]]]}, {"module": "keras.layers", "class_name": "Concatenate", "config": {"name": "concatenate_5", "trainable": false, "dtype": "float32", "axis": 3}, "registered_name": null, "build_config": {"input_shape": [[null, 5, 5, 384], [null, 5, 5, 384]]}, "name": "concatenate_5", "inbound_nodes": [[["activation_279", 0, 0, {}], ["activation_280", 0, 0, {}]]]}, {"module": "keras.layers", "class_name": "Activation", "config": {"name": "activation_281", "trainable": false, "dtype": "float32", "activation": "relu"}, "registered_name": null, "build_config": {"input_shape": [null, 5, 5, 192]}, "name": "activation_281", "inbound_nodes": [[["batch_normalization_281", 0, 0, {}]]]}, {"module": "keras.layers", "class_name": "Concatenate", "config": {"name": "mixed10", "trainable": false, "dtype": "float32", "axis": 3}, "registered_name": null, "build_config": {"input_shape": [[null, 5, 5, 320], [null, 5, 5, 768], [null, 5, 5, 768], [null, 5, 5, 192]]}, "name": "mixed10", "inbound_nodes": [[["activation_273", 0, 0, {}], ["mixed9_1", 0, 0, {}], ["concatenate_5", 0, 0, {}], ["activation_281", 0, 0, {}]]]}], "input_layers": [["input_3", 0, 0]], "output_layers": [["mixed10", 0, 0]]}}, {"class_name": "Flatten", "config": {"name": "flatten_2", "trainable": true, "dtype": "float32", "data_format": "channels_last"}}, {"class_name": "Dense", "config": {"name": "dense_4", "trainable": true, "dtype": "float32", "units": 64, "activation": "selu", "use_bias": true, "kernel_initializer": {"module": "keras.initializers", "class_name": "GlorotUniform", "config": {"seed": null}, "registered_name": null}, "bias_initializer": {"module": "keras.initializers", "class_name": "Zeros", "config": {}, "registered_name": null}, "kernel_regularizer": null, "bias_regularizer": null, "activity_regularizer": null, "kernel_constraint": null, "bias_constraint": null}}, {"class_name": "Dense", "config": {"name": "dense_5", "trainable": true, "dtype": "float32", "units": 3, "activation": "sigmoid", "use_bias": true, "kernel_initializer": {"module": "keras.initializers", "class_name": "GlorotUniform", "config": {"seed": null}, "registered_name": null}, "bias_initializer": {"module": "keras.initializers", "class_name": "Zeros", "config": {}, "registered_name": null}, "kernel_regularizer": null, "bias_regularizer": null, "activity_regularizer": null, "kernel_constraint": null, "bias_constraint": null}}]}}, "training_config": {"loss": "binary_crossentropy", "metrics": [[{"class_name": "MeanMetricWrapper", "config": {"name": "accuracy", "dtype": "float32", "fn": "categorical_accuracy"}}]], "weighted_metrics": null, "loss_weights": null, "optimizer_config": {"class_name": "Custom>Adam", "config": {"name": "Adam", "weight_decay": null, "clipnorm": null, "global_clipnorm": null, "clipvalue": null, "use_ema": false, "ema_momentum": 0.99, "ema_overwrite_frequency": null, "jit_compile": false, "is_legacy_optimizer": false, "learning_rate": 9.999999974752427e-07, "beta_1": 0.9, "beta_2": 0.999, "epsilon": 1e-07, "amsgrad": false}}}}, "weightsManifest": [{"paths": ["group1-shard1of24.bin", "group1-shard2of24.bin", "group1-shard3of24.bin", "group1-shard4of24.bin", "group1-shard5of24.bin", "group1-shard6of24.bin", "group1-shard7of24.bin", "group1-shard8of24.bin", "group1-shard9of24.bin", "group1-shard10of24.bin", "group1-shard11of24.bin", "group1-shard12of24.bin", "group1-shard13of24.bin", "group1-shard14of24.bin", "group1-shard15of24.bin", "group1-shard16of24.bin", "group1-shard17of24.bin", "group1-shard18of24.bin", "group1-shard19of24.bin", "group1-shard20of24.bin", "group1-shard21of24.bin", "group1-shard22of24.bin", "group1-shard23of24.bin", "group1-shard24of24.bin"], "weights": [{"name": "dense_4/kernel", "shape": [51200, 64], "dtype": "float32"}, {"name": "dense_4/bias", "shape": [64], "dtype": "float32"}, {"name": "dense_5/kernel", "shape": [64, 3], "dtype": "float32"}, {"name": "dense_5/bias", "shape": [3], "dtype": "float32"}, {"name": "conv2d_188/kernel", "shape": [3, 3, 3, 32], "dtype": "float32"}, {"name": "batch_normalization_188/beta", "shape": [32], "dtype": "float32"}, {"name": "batch_normalization_188/moving_mean", "shape": [32], "dtype": "float32"}, {"name": "batch_normalization_188/moving_variance", "shape": [32], "dtype": "float32"}, {"name": "conv2d_189/kernel", "shape": [3, 3, 32, 32], "dtype": "float32"}, {"name": "batch_normalization_189/beta", "shape": [32], "dtype": "float32"}, {"name": "batch_normalization_189/moving_mean", "shape": [32], "dtype": "float32"}, {"name": "batch_normalization_189/moving_variance", "shape": [32], "dtype": "float32"}, {"name": "conv2d_190/kernel", "shape": [3, 3, 32, 64], "dtype": "float32"}, {"name": "batch_normalization_190/beta", "shape": [64], "dtype": "float32"}, {"name": "batch_normalization_190/moving_mean", "shape": [64], "dtype": "float32"}, {"name": "batch_normalization_190/moving_variance", "shape": [64], "dtype": "float32"}, {"name": "conv2d_191/kernel", "shape": [1, 1, 64, 80], "dtype": "float32"}, {"name": "batch_normalization_191/beta", "shape": [80], "dtype": "float32"}, {"name": "batch_normalization_191/moving_mean", "shape": [80], "dtype": "float32"}, {"name": "batch_normalization_191/moving_variance", "shape": [80], "dtype": "float32"}, {"name": "conv2d_192/kernel", "shape": [3, 3, 80, 192], "dtype": "float32"}, {"name": "batch_normalization_192/beta", "shape": [192], "dtype": "float32"}, {"name": "batch_normalization_192/moving_mean", "shape": [192], "dtype": "float32"}, {"name": "batch_normalization_192/moving_variance", "shape": [192], "dtype": "float32"}, {"name": "conv2d_196/kernel", "shape": [1, 1, 192, 64], "dtype": "float32"}, {"name": "batch_normalization_196/beta", "shape": [64], "dtype": "float32"}, {"name": "batch_normalization_196/moving_mean", "shape": [64], "dtype": "float32"}, {"name": "batch_normalization_196/moving_variance", "shape": [64], "dtype": "float32"}, {"name": "conv2d_194/kernel", "shape": [1, 1, 192, 48], "dtype": "float32"}, {"name": "conv2d_197/kernel", "shape": [3, 3, 64, 96], "dtype": "float32"}, {"name": "batch_normalization_194/beta", "shape": [48], "dtype": "float32"}, {"name": "batch_normalization_194/moving_mean", "shape": [48], "dtype": "float32"}, {"name": "batch_normalization_194/moving_variance", "shape": [48], "dtype": "float32"}, {"name": "batch_normalization_197/beta", "shape": [96], "dtype": "float32"}, {"name": "batch_normalization_197/moving_mean", "shape": [96], "dtype": "float32"}, {"name": "batch_normalization_197/moving_variance", "shape": [96], "dtype": "float32"}, {"name": "conv2d_193/kernel", "shape": [1, 1, 192, 64], "dtype": "float32"}, {"name": "conv2d_195/kernel", "shape": [5, 5, 48, 64], "dtype": "float32"}, {"name": "conv2d_198/kernel", "shape": [3, 3, 96, 96], "dtype": "float32"}, {"name": "conv2d_199/kernel", "shape": [1, 1, 192, 32], "dtype": "float32"}, {"name": "batch_normalization_193/beta", "shape": [64], "dtype": "float32"}, {"name": "batch_normalization_193/moving_mean", "shape": [64], "dtype": "float32"}, {"name": "batch_normalization_193/moving_variance", "shape": [64], "dtype": "float32"}, {"name": "batch_normalization_195/beta", "shape": [64], "dtype": "float32"}, {"name": "batch_normalization_195/moving_mean", "shape": [64], "dtype": "float32"}, {"name": "batch_normalization_195/moving_variance", "shape": [64], "dtype": "float32"}, {"name": "batch_normalization_198/beta", "shape": [96], "dtype": "float32"}, {"name": "batch_normalization_198/moving_mean", "shape": [96], "dtype": "float32"}, {"name": "batch_normalization_198/moving_variance", "shape": [96], "dtype": "float32"}, {"name": "batch_normalization_199/beta", "shape": [32], "dtype": "float32"}, {"name": "batch_normalization_199/moving_mean", "shape": [32], "dtype": "float32"}, {"name": "batch_normalization_199/moving_variance", "shape": [32], "dtype": "float32"}, {"name": "conv2d_203/kernel", "shape": [1, 1, 256, 64], "dtype": "float32"}, {"name": "batch_normalization_203/beta", "shape": [64], "dtype": "float32"}, {"name": "batch_normalization_203/moving_mean", "shape": [64], "dtype": "float32"}, {"name": "batch_normalization_203/moving_variance", "shape": [64], "dtype": "float32"}, {"name": "conv2d_201/kernel", "shape": [1, 1, 256, 48], "dtype": "float32"}, {"name": "conv2d_204/kernel", "shape": [3, 3, 64, 96], "dtype": "float32"}, {"name": "batch_normalization_201/beta", "shape": [48], "dtype": "float32"}, {"name": "batch_normalization_201/moving_mean", "shape": [48], "dtype": "float32"}, {"name": "batch_normalization_201/moving_variance", "shape": [48], "dtype": "float32"}, {"name": "batch_normalization_204/beta", "shape": [96], "dtype": "float32"}, {"name": "batch_normalization_204/moving_mean", "shape": [96], "dtype": "float32"}, {"name": "batch_normalization_204/moving_variance", "shape": [96], "dtype": "float32"}, {"name": "conv2d_200/kernel", "shape": [1, 1, 256, 64], "dtype": "float32"}, {"name": "conv2d_202/kernel", "shape": [5, 5, 48, 64], "dtype": "float32"}, {"name": "conv2d_205/kernel", "shape": [3, 3, 96, 96], "dtype": "float32"}, {"name": "conv2d_206/kernel", "shape": [1, 1, 256, 64], "dtype": "float32"}, {"name": "batch_normalization_200/beta", "shape": [64], "dtype": "float32"}, {"name": "batch_normalization_200/moving_mean", "shape": [64], "dtype": "float32"}, {"name": "batch_normalization_200/moving_variance", "shape": [64], "dtype": "float32"}, {"name": "batch_normalization_202/beta", "shape": [64], "dtype": "float32"}, {"name": "batch_normalization_202/moving_mean", "shape": [64], "dtype": "float32"}, {"name": "batch_normalization_202/moving_variance", "shape": [64], "dtype": "float32"}, {"name": "batch_normalization_205/beta", "shape": [96], "dtype": "float32"}, {"name": "batch_normalization_205/moving_mean", "shape": [96], "dtype": "float32"}, {"name": "batch_normalization_205/moving_variance", "shape": [96], "dtype": "float32"}, {"name": "batch_normalization_206/beta", "shape": [64], "dtype": "float32"}, {"name": "batch_normalization_206/moving_mean", "shape": [64], "dtype": "float32"}, {"name": "batch_normalization_206/moving_variance", "shape": [64], "dtype": "float32"}, {"name": "conv2d_210/kernel", "shape": [1, 1, 288, 64], "dtype": "float32"}, {"name": "batch_normalization_210/beta", "shape": [64], "dtype": "float32"}, {"name": "batch_normalization_210/moving_mean", "shape": [64], "dtype": "float32"}, {"name": "batch_normalization_210/moving_variance", "shape": [64], "dtype": "float32"}, {"name": "conv2d_208/kernel", "shape": [1, 1, 288, 48], "dtype": "float32"}, {"name": "conv2d_211/kernel", "shape": [3, 3, 64, 96], "dtype": "float32"}, {"name": "batch_normalization_208/beta", "shape": [48], "dtype": "float32"}, {"name": "batch_normalization_208/moving_mean", "shape": [48], "dtype": "float32"}, {"name": "batch_normalization_208/moving_variance", "shape": [48], "dtype": "float32"}, {"name": "batch_normalization_211/beta", "shape": [96], "dtype": "float32"}, {"name": "batch_normalization_211/moving_mean", "shape": [96], "dtype": "float32"}, {"name": "batch_normalization_211/moving_variance", "shape": [96], "dtype": "float32"}, {"name": "conv2d_207/kernel", "shape": [1, 1, 288, 64], "dtype": "float32"}, {"name": "conv2d_209/kernel", "shape": [5, 5, 48, 64], "dtype": "float32"}, {"name": "conv2d_212/kernel", "shape": [3, 3, 96, 96], "dtype": "float32"}, {"name": "conv2d_213/kernel", "shape": [1, 1, 288, 64], "dtype": "float32"}, {"name": "batch_normalization_207/beta", "shape": [64], "dtype": "float32"}, {"name": "batch_normalization_207/moving_mean", "shape": [64], "dtype": "float32"}, {"name": "batch_normalization_207/moving_variance", "shape": [64], "dtype": "float32"}, {"name": "batch_normalization_209/beta", "shape": [64], "dtype": "float32"}, {"name": "batch_normalization_209/moving_mean", "shape": [64], "dtype": "float32"}, {"name": "batch_normalization_209/moving_variance", "shape": [64], "dtype": "float32"}, {"name": "batch_normalization_212/beta", "shape": [96], "dtype": "float32"}, {"name": "batch_normalization_212/moving_mean", "shape": [96], "dtype": "float32"}, {"name": "batch_normalization_212/moving_variance", "shape": [96], "dtype": "float32"}, {"name": "batch_normalization_213/beta", "shape": [64], "dtype": "float32"}, {"name": "batch_normalization_213/moving_mean", "shape": [64], "dtype": "float32"}, {"name": "batch_normalization_213/moving_variance", "shape": [64], "dtype": "float32"}, {"name": "conv2d_215/kernel", "shape": [1, 1, 288, 64], "dtype": "float32"}, {"name": "batch_normalization_215/beta", "shape": [64], "dtype": "float32"}, {"name": "batch_normalization_215/moving_mean", "shape": [64], "dtype": "float32"}, {"name": "batch_normalization_215/moving_variance", "shape": [64], "dtype": "float32"}, {"name": "conv2d_216/kernel", "shape": [3, 3, 64, 96], "dtype": "float32"}, {"name": "batch_normalization_216/beta", "shape": [96], "dtype": "float32"}, {"name": "batch_normalization_216/moving_mean", "shape": [96], "dtype": "float32"}, {"name": "batch_normalization_216/moving_variance", "shape": [96], "dtype": "float32"}, {"name": "conv2d_214/kernel", "shape": [3, 3, 288, 384], "dtype": "float32"}, {"name": "conv2d_217/kernel", "shape": [3, 3, 96, 96], "dtype": "float32"}, {"name": "batch_normalization_214/beta", "shape": [384], "dtype": "float32"}, {"name": "batch_normalization_214/moving_mean", "shape": [384], "dtype": "float32"}, {"name": "batch_normalization_214/moving_variance", "shape": [384], "dtype": "float32"}, {"name": "batch_normalization_217/beta", "shape": [96], "dtype": "float32"}, {"name": "batch_normalization_217/moving_mean", "shape": [96], "dtype": "float32"}, {"name": "batch_normalization_217/moving_variance", "shape": [96], "dtype": "float32"}, {"name": "conv2d_222/kernel", "shape": [1, 1, 768, 128], "dtype": "float32"}, {"name": "batch_normalization_222/beta", "shape": [128], "dtype": "float32"}, {"name": "batch_normalization_222/moving_mean", "shape": [128], "dtype": "float32"}, {"name": "batch_normalization_222/moving_variance", "shape": [128], "dtype": "float32"}, {"name": "conv2d_223/kernel", "shape": [7, 1, 128, 128], "dtype": "float32"}, {"name": "batch_normalization_223/beta", "shape": [128], "dtype": "float32"}, {"name": "batch_normalization_223/moving_mean", "shape": [128], "dtype": "float32"}, {"name": "batch_normalization_223/moving_variance", "shape": [128], "dtype": "float32"}, {"name": "conv2d_219/kernel", "shape": [1, 1, 768, 128], "dtype": "float32"}, {"name": "conv2d_224/kernel", "shape": [1, 7, 128, 128], "dtype": "float32"}, {"name": "batch_normalization_219/beta", "shape": [128], "dtype": "float32"}, {"name": "batch_normalization_219/moving_mean", "shape": [128], "dtype": "float32"}, {"name": "batch_normalization_219/moving_variance", "shape": [128], "dtype": "float32"}, {"name": "batch_normalization_224/beta", "shape": [128], "dtype": "float32"}, {"name": "batch_normalization_224/moving_mean", "shape": [128], "dtype": "float32"}, {"name": "batch_normalization_224/moving_variance", "shape": [128], "dtype": "float32"}, {"name": "conv2d_220/kernel", "shape": [1, 7, 128, 128], "dtype": "float32"}, {"name": "conv2d_225/kernel", "shape": [7, 1, 128, 128], "dtype": "float32"}, {"name": "batch_normalization_220/beta", "shape": [128], "dtype": "float32"}, {"name": "batch_normalization_220/moving_mean", "shape": [128], "dtype": "float32"}, {"name": "batch_normalization_220/moving_variance", "shape": [128], "dtype": "float32"}, {"name": "batch_normalization_225/beta", "shape": [128], "dtype": "float32"}, {"name": "batch_normalization_225/moving_mean", "shape": [128], "dtype": "float32"}, {"name": "batch_normalization_225/moving_variance", "shape": [128], "dtype": "float32"}, {"name": "conv2d_218/kernel", "shape": [1, 1, 768, 192], "dtype": "float32"}, {"name": "conv2d_221/kernel", "shape": [7, 1, 128, 192], "dtype": "float32"}, {"name": "conv2d_226/kernel", "shape": [1, 7, 128, 192], "dtype": "float32"}, {"name": "conv2d_227/kernel", "shape": [1, 1, 768, 192], "dtype": "float32"}, {"name": "batch_normalization_218/beta", "shape": [192], "dtype": "float32"}, {"name": "batch_normalization_218/moving_mean", "shape": [192], "dtype": "float32"}, {"name": "batch_normalization_218/moving_variance", "shape": [192], "dtype": "float32"}, {"name": "batch_normalization_221/beta", "shape": [192], "dtype": "float32"}, {"name": "batch_normalization_221/moving_mean", "shape": [192], "dtype": "float32"}, {"name": "batch_normalization_221/moving_variance", "shape": [192], "dtype": "float32"}, {"name": "batch_normalization_226/beta", "shape": [192], "dtype": "float32"}, {"name": "batch_normalization_226/moving_mean", "shape": [192], "dtype": "float32"}, {"name": "batch_normalization_226/moving_variance", "shape": [192], "dtype": "float32"}, {"name": "batch_normalization_227/beta", "shape": [192], "dtype": "float32"}, {"name": "batch_normalization_227/moving_mean", "shape": [192], "dtype": "float32"}, {"name": "batch_normalization_227/moving_variance", "shape": [192], "dtype": "float32"}, {"name": "conv2d_232/kernel", "shape": [1, 1, 768, 160], "dtype": "float32"}, {"name": "batch_normalization_232/beta", "shape": [160], "dtype": "float32"}, {"name": "batch_normalization_232/moving_mean", "shape": [160], "dtype": "float32"}, {"name": "batch_normalization_232/moving_variance", "shape": [160], "dtype": "float32"}, {"name": "conv2d_233/kernel", "shape": [7, 1, 160, 160], "dtype": "float32"}, {"name": "batch_normalization_233/beta", "shape": [160], "dtype": "float32"}, {"name": "batch_normalization_233/moving_mean", "shape": [160], "dtype": "float32"}, {"name": "batch_normalization_233/moving_variance", "shape": [160], "dtype": "float32"}, {"name": "conv2d_229/kernel", "shape": [1, 1, 768, 160], "dtype": "float32"}, {"name": "conv2d_234/kernel", "shape": [1, 7, 160, 160], "dtype": "float32"}, {"name": "batch_normalization_229/beta", "shape": [160], "dtype": "float32"}, {"name": "batch_normalization_229/moving_mean", "shape": [160], "dtype": "float32"}, {"name": "batch_normalization_229/moving_variance", "shape": [160], "dtype": "float32"}, {"name": "batch_normalization_234/beta", "shape": [160], "dtype": "float32"}, {"name": "batch_normalization_234/moving_mean", "shape": [160], "dtype": "float32"}, {"name": "batch_normalization_234/moving_variance", "shape": [160], "dtype": "float32"}, {"name": "conv2d_230/kernel", "shape": [1, 7, 160, 160], "dtype": "float32"}, {"name": "conv2d_235/kernel", "shape": [7, 1, 160, 160], "dtype": "float32"}, {"name": "batch_normalization_230/beta", "shape": [160], "dtype": "float32"}, {"name": "batch_normalization_230/moving_mean", "shape": [160], "dtype": "float32"}, {"name": "batch_normalization_230/moving_variance", "shape": [160], "dtype": "float32"}, {"name": "batch_normalization_235/beta", "shape": [160], "dtype": "float32"}, {"name": "batch_normalization_235/moving_mean", "shape": [160], "dtype": "float32"}, {"name": "batch_normalization_235/moving_variance", "shape": [160], "dtype": "float32"}, {"name": "conv2d_228/kernel", "shape": [1, 1, 768, 192], "dtype": "float32"}, {"name": "conv2d_231/kernel", "shape": [7, 1, 160, 192], "dtype": "float32"}, {"name": "conv2d_236/kernel", "shape": [1, 7, 160, 192], "dtype": "float32"}, {"name": "conv2d_237/kernel", "shape": [1, 1, 768, 192], "dtype": "float32"}, {"name": "batch_normalization_228/beta", "shape": [192], "dtype": "float32"}, {"name": "batch_normalization_228/moving_mean", "shape": [192], "dtype": "float32"}, {"name": "batch_normalization_228/moving_variance", "shape": [192], "dtype": "float32"}, {"name": "batch_normalization_231/beta", "shape": [192], "dtype": "float32"}, {"name": "batch_normalization_231/moving_mean", "shape": [192], "dtype": "float32"}, {"name": "batch_normalization_231/moving_variance", "shape": [192], "dtype": "float32"}, {"name": "batch_normalization_236/beta", "shape": [192], "dtype": "float32"}, {"name": "batch_normalization_236/moving_mean", "shape": [192], "dtype": "float32"}, {"name": "batch_normalization_236/moving_variance", "shape": [192], "dtype": "float32"}, {"name": "batch_normalization_237/beta", "shape": [192], "dtype": "float32"}, {"name": "batch_normalization_237/moving_mean", "shape": [192], "dtype": "float32"}, {"name": "batch_normalization_237/moving_variance", "shape": [192], "dtype": "float32"}, {"name": "conv2d_242/kernel", "shape": [1, 1, 768, 160], "dtype": "float32"}, {"name": "batch_normalization_242/beta", "shape": [160], "dtype": "float32"}, {"name": "batch_normalization_242/moving_mean", "shape": [160], "dtype": "float32"}, {"name": "batch_normalization_242/moving_variance", "shape": [160], "dtype": "float32"}, {"name": "conv2d_243/kernel", "shape": [7, 1, 160, 160], "dtype": "float32"}, {"name": "batch_normalization_243/beta", "shape": [160], "dtype": "float32"}, {"name": "batch_normalization_243/moving_mean", "shape": [160], "dtype": "float32"}, {"name": "batch_normalization_243/moving_variance", "shape": [160], "dtype": "float32"}, {"name": "conv2d_239/kernel", "shape": [1, 1, 768, 160], "dtype": "float32"}, {"name": "conv2d_244/kernel", "shape": [1, 7, 160, 160], "dtype": "float32"}, {"name": "batch_normalization_239/beta", "shape": [160], "dtype": "float32"}, {"name": "batch_normalization_239/moving_mean", "shape": [160], "dtype": "float32"}, {"name": "batch_normalization_239/moving_variance", "shape": [160], "dtype": "float32"}, {"name": "batch_normalization_244/beta", "shape": [160], "dtype": "float32"}, {"name": "batch_normalization_244/moving_mean", "shape": [160], "dtype": "float32"}, {"name": "batch_normalization_244/moving_variance", "shape": [160], "dtype": "float32"}, {"name": "conv2d_240/kernel", "shape": [1, 7, 160, 160], "dtype": "float32"}, {"name": "conv2d_245/kernel", "shape": [7, 1, 160, 160], "dtype": "float32"}, {"name": "batch_normalization_240/beta", "shape": [160], "dtype": "float32"}, {"name": "batch_normalization_240/moving_mean", "shape": [160], "dtype": "float32"}, {"name": "batch_normalization_240/moving_variance", "shape": [160], "dtype": "float32"}, {"name": "batch_normalization_245/beta", "shape": [160], "dtype": "float32"}, {"name": "batch_normalization_245/moving_mean", "shape": [160], "dtype": "float32"}, {"name": "batch_normalization_245/moving_variance", "shape": [160], "dtype": "float32"}, {"name": "conv2d_238/kernel", "shape": [1, 1, 768, 192], "dtype": "float32"}, {"name": "conv2d_241/kernel", "shape": [7, 1, 160, 192], "dtype": "float32"}, {"name": "conv2d_246/kernel", "shape": [1, 7, 160, 192], "dtype": "float32"}, {"name": "conv2d_247/kernel", "shape": [1, 1, 768, 192], "dtype": "float32"}, {"name": "batch_normalization_238/beta", "shape": [192], "dtype": "float32"}, {"name": "batch_normalization_238/moving_mean", "shape": [192], "dtype": "float32"}, {"name": "batch_normalization_238/moving_variance", "shape": [192], "dtype": "float32"}, {"name": "batch_normalization_241/beta", "shape": [192], "dtype": "float32"}, {"name": "batch_normalization_241/moving_mean", "shape": [192], "dtype": "float32"}, {"name": "batch_normalization_241/moving_variance", "shape": [192], "dtype": "float32"}, {"name": "batch_normalization_246/beta", "shape": [192], "dtype": "float32"}, {"name": "batch_normalization_246/moving_mean", "shape": [192], "dtype": "float32"}, {"name": "batch_normalization_246/moving_variance", "shape": [192], "dtype": "float32"}, {"name": "batch_normalization_247/beta", "shape": [192], "dtype": "float32"}, {"name": "batch_normalization_247/moving_mean", "shape": [192], "dtype": "float32"}, {"name": "batch_normalization_247/moving_variance", "shape": [192], "dtype": "float32"}, {"name": "conv2d_252/kernel", "shape": [1, 1, 768, 192], "dtype": "float32"}, {"name": "batch_normalization_252/beta", "shape": [192], "dtype": "float32"}, {"name": "batch_normalization_252/moving_mean", "shape": [192], "dtype": "float32"}, {"name": "batch_normalization_252/moving_variance", "shape": [192], "dtype": "float32"}, {"name": "conv2d_253/kernel", "shape": [7, 1, 192, 192], "dtype": "float32"}, {"name": "batch_normalization_253/beta", "shape": [192], "dtype": "float32"}, {"name": "batch_normalization_253/moving_mean", "shape": [192], "dtype": "float32"}, {"name": "batch_normalization_253/moving_variance", "shape": [192], "dtype": "float32"}, {"name": "conv2d_249/kernel", "shape": [1, 1, 768, 192], "dtype": "float32"}, {"name": "conv2d_254/kernel", "shape": [1, 7, 192, 192], "dtype": "float32"}, {"name": "batch_normalization_249/beta", "shape": [192], "dtype": "float32"}, {"name": "batch_normalization_249/moving_mean", "shape": [192], "dtype": "float32"}, {"name": "batch_normalization_249/moving_variance", "shape": [192], "dtype": "float32"}, {"name": "batch_normalization_254/beta", "shape": [192], "dtype": "float32"}, {"name": "batch_normalization_254/moving_mean", "shape": [192], "dtype": "float32"}, {"name": "batch_normalization_254/moving_variance", "shape": [192], "dtype": "float32"}, {"name": "conv2d_250/kernel", "shape": [1, 7, 192, 192], "dtype": "float32"}, {"name": "conv2d_255/kernel", "shape": [7, 1, 192, 192], "dtype": "float32"}, {"name": "batch_normalization_250/beta", "shape": [192], "dtype": "float32"}, {"name": "batch_normalization_250/moving_mean", "shape": [192], "dtype": "float32"}, {"name": "batch_normalization_250/moving_variance", "shape": [192], "dtype": "float32"}, {"name": "batch_normalization_255/beta", "shape": [192], "dtype": "float32"}, {"name": "batch_normalization_255/moving_mean", "shape": [192], "dtype": "float32"}, {"name": "batch_normalization_255/moving_variance", "shape": [192], "dtype": "float32"}, {"name": "conv2d_248/kernel", "shape": [1, 1, 768, 192], "dtype": "float32"}, {"name": "conv2d_251/kernel", "shape": [7, 1, 192, 192], "dtype": "float32"}, {"name": "conv2d_256/kernel", "shape": [1, 7, 192, 192], "dtype": "float32"}, {"name": "conv2d_257/kernel", "shape": [1, 1, 768, 192], "dtype": "float32"}, {"name": "batch_normalization_248/beta", "shape": [192], "dtype": "float32"}, {"name": "batch_normalization_248/moving_mean", "shape": [192], "dtype": "float32"}, {"name": "batch_normalization_248/moving_variance", "shape": [192], "dtype": "float32"}, {"name": "batch_normalization_251/beta", "shape": [192], "dtype": "float32"}, {"name": "batch_normalization_251/moving_mean", "shape": [192], "dtype": "float32"}, {"name": "batch_normalization_251/moving_variance", "shape": [192], "dtype": "float32"}, {"name": "batch_normalization_256/beta", "shape": [192], "dtype": "float32"}, {"name": "batch_normalization_256/moving_mean", "shape": [192], "dtype": "float32"}, {"name": "batch_normalization_256/moving_variance", "shape": [192], "dtype": "float32"}, {"name": "batch_normalization_257/beta", "shape": [192], "dtype": "float32"}, {"name": "batch_normalization_257/moving_mean", "shape": [192], "dtype": "float32"}, {"name": "batch_normalization_257/moving_variance", "shape": [192], "dtype": "float32"}, {"name": "conv2d_260/kernel", "shape": [1, 1, 768, 192], "dtype": "float32"}, {"name": "batch_normalization_260/beta", "shape": [192], "dtype": "float32"}, {"name": "batch_normalization_260/moving_mean", "shape": [192], "dtype": "float32"}, {"name": "batch_normalization_260/moving_variance", "shape": [192], "dtype": "float32"}, {"name": "conv2d_261/kernel", "shape": [1, 7, 192, 192], "dtype": "float32"}, {"name": "batch_normalization_261/beta", "shape": [192], "dtype": "float32"}, {"name": "batch_normalization_261/moving_mean", "shape": [192], "dtype": "float32"}, {"name": "batch_normalization_261/moving_variance", "shape": [192], "dtype": "float32"}, {"name": "conv2d_258/kernel", "shape": [1, 1, 768, 192], "dtype": "float32"}, {"name": "conv2d_262/kernel", "shape": [7, 1, 192, 192], "dtype": "float32"}, {"name": "batch_normalization_258/beta", "shape": [192], "dtype": "float32"}, {"name": "batch_normalization_258/moving_mean", "shape": [192], "dtype": "float32"}, {"name": "batch_normalization_258/moving_variance", "shape": [192], "dtype": "float32"}, {"name": "batch_normalization_262/beta", "shape": [192], "dtype": "float32"}, {"name": "batch_normalization_262/moving_mean", "shape": [192], "dtype": "float32"}, {"name": "batch_normalization_262/moving_variance", "shape": [192], "dtype": "float32"}, {"name": "conv2d_259/kernel", "shape": [3, 3, 192, 320], "dtype": "float32"}, {"name": "conv2d_263/kernel", "shape": [3, 3, 192, 192], "dtype": "float32"}, {"name": "batch_normalization_259/beta", "shape": [320], "dtype": "float32"}, {"name": "batch_normalization_259/moving_mean", "shape": [320], "dtype": "float32"}, {"name": "batch_normalization_259/moving_variance", "shape": [320], "dtype": "float32"}, {"name": "batch_normalization_263/beta", "shape": [192], "dtype": "float32"}, {"name": "batch_normalization_263/moving_mean", "shape": [192], "dtype": "float32"}, {"name": "batch_normalization_263/moving_variance", "shape": [192], "dtype": "float32"}, {"name": "conv2d_268/kernel", "shape": [1, 1, 1280, 448], "dtype": "float32"}, {"name": "batch_normalization_268/beta", "shape": [448], "dtype": "float32"}, {"name": "batch_normalization_268/moving_mean", "shape": [448], "dtype": "float32"}, {"name": "batch_normalization_268/moving_variance", "shape": [448], "dtype": "float32"}, {"name": "conv2d_265/kernel", "shape": [1, 1, 1280, 384], "dtype": "float32"}, {"name": "conv2d_269/kernel", "shape": [3, 3, 448, 384], "dtype": "float32"}, {"name": "batch_normalization_265/beta", "shape": [384], "dtype": "float32"}, {"name": "batch_normalization_265/moving_mean", "shape": [384], "dtype": "float32"}, {"name": "batch_normalization_265/moving_variance", "shape": [384], "dtype": "float32"}, {"name": "batch_normalization_269/beta", "shape": [384], "dtype": "float32"}, {"name": "batch_normalization_269/moving_mean", "shape": [384], "dtype": "float32"}, {"name": "batch_normalization_269/moving_variance", "shape": [384], "dtype": "float32"}, {"name": "conv2d_266/kernel", "shape": [1, 3, 384, 384], "dtype": "float32"}, {"name": "conv2d_267/kernel", "shape": [3, 1, 384, 384], "dtype": "float32"}, {"name": "conv2d_270/kernel", "shape": [1, 3, 384, 384], "dtype": "float32"}, {"name": "conv2d_271/kernel", "shape": [3, 1, 384, 384], "dtype": "float32"}, {"name": "conv2d_264/kernel", "shape": [1, 1, 1280, 320], "dtype": "float32"}, {"name": "batch_normalization_266/beta", "shape": [384], "dtype": "float32"}, {"name": "batch_normalization_266/moving_mean", "shape": [384], "dtype": "float32"}, {"name": "batch_normalization_266/moving_variance", "shape": [384], "dtype": "float32"}, {"name": "batch_normalization_267/beta", "shape": [384], "dtype": "float32"}, {"name": "batch_normalization_267/moving_mean", "shape": [384], "dtype": "float32"}, {"name": "batch_normalization_267/moving_variance", "shape": [384], "dtype": "float32"}, {"name": "batch_normalization_270/beta", "shape": [384], "dtype": "float32"}, {"name": "batch_normalization_270/moving_mean", "shape": [384], "dtype": "float32"}, {"name": "batch_normalization_270/moving_variance", "shape": [384], "dtype": "float32"}, {"name": "batch_normalization_271/beta", "shape": [384], "dtype": "float32"}, {"name": "batch_normalization_271/moving_mean", "shape": [384], "dtype": "float32"}, {"name": "batch_normalization_271/moving_variance", "shape": [384], "dtype": "float32"}, {"name": "conv2d_272/kernel", "shape": [1, 1, 1280, 192], "dtype": "float32"}, {"name": "batch_normalization_264/beta", "shape": [320], "dtype": "float32"}, {"name": "batch_normalization_264/moving_mean", "shape": [320], "dtype": "float32"}, {"name": "batch_normalization_264/moving_variance", "shape": [320], "dtype": "float32"}, {"name": "batch_normalization_272/beta", "shape": [192], "dtype": "float32"}, {"name": "batch_normalization_272/moving_mean", "shape": [192], "dtype": "float32"}, {"name": "batch_normalization_272/moving_variance", "shape": [192], "dtype": "float32"}, {"name": "conv2d_277/kernel", "shape": [1, 1, 2048, 448], "dtype": "float32"}, {"name": "batch_normalization_277/beta", "shape": [448], "dtype": "float32"}, {"name": "batch_normalization_277/moving_mean", "shape": [448], "dtype": "float32"}, {"name": "batch_normalization_277/moving_variance", "shape": [448], "dtype": "float32"}, {"name": "conv2d_274/kernel", "shape": [1, 1, 2048, 384], "dtype": "float32"}, {"name": "conv2d_278/kernel", "shape": [3, 3, 448, 384], "dtype": "float32"}, {"name": "batch_normalization_274/beta", "shape": [384], "dtype": "float32"}, {"name": "batch_normalization_274/moving_mean", "shape": [384], "dtype": "float32"}, {"name": "batch_normalization_274/moving_variance", "shape": [384], "dtype": "float32"}, {"name": "batch_normalization_278/beta", "shape": [384], "dtype": "float32"}, {"name": "batch_normalization_278/moving_mean", "shape": [384], "dtype": "float32"}, {"name": "batch_normalization_278/moving_variance", "shape": [384], "dtype": "float32"}, {"name": "conv2d_275/kernel", "shape": [1, 3, 384, 384], "dtype": "float32"}, {"name": "conv2d_276/kernel", "shape": [3, 1, 384, 384], "dtype": "float32"}, {"name": "conv2d_279/kernel", "shape": [1, 3, 384, 384], "dtype": "float32"}, {"name": "conv2d_280/kernel", "shape": [3, 1, 384, 384], "dtype": "float32"}, {"name": "conv2d_273/kernel", "shape": [1, 1, 2048, 320], "dtype": "float32"}, {"name": "batch_normalization_275/beta", "shape": [384], "dtype": "float32"}, {"name": "batch_normalization_275/moving_mean", "shape": [384], "dtype": "float32"}, {"name": "batch_normalization_275/moving_variance", "shape": [384], "dtype": "float32"}, {"name": "batch_normalization_276/beta", "shape": [384], "dtype": "float32"}, {"name": "batch_normalization_276/moving_mean", "shape": [384], "dtype": "float32"}, {"name": "batch_normalization_276/moving_variance", "shape": [384], "dtype": "float32"}, {"name": "batch_normalization_279/beta", "shape": [384], "dtype": "float32"}, {"name": "batch_normalization_279/moving_mean", "shape": [384], "dtype": "float32"}, {"name": "batch_normalization_279/moving_variance", "shape": [384], "dtype": "float32"}, {"name": "batch_normalization_280/beta", "shape": [384], "dtype": "float32"}, {"name": "batch_normalization_280/moving_mean", "shape": [384], "dtype": "float32"}, {"name": "batch_normalization_280/moving_variance", "shape": [384], "dtype": "float32"}, {"name": "conv2d_281/kernel", "shape": [1, 1, 2048, 192], "dtype": "float32"}, {"name": "batch_normalization_273/beta", "shape": [320], "dtype": "float32"}, {"name": "batch_normalization_273/moving_mean", "shape": [320], "dtype": "float32"}, {"name": "batch_normalization_273/moving_variance", "shape": [320], "dtype": "float32"}, {"name": "batch_normalization_281/beta", "shape": [192], "dtype": "float32"}, {"name": "batch_normalization_281/moving_mean", "shape": [192], "dtype": "float32"}, {"name": "batch_normalization_281/moving_variance", "shape": [192], "dtype": "float32"}]}]}